data/net_viscoelastic.pt (torch_old, 54220 bytes, 12 tensors)

fc_hidden_layers.0.weight f4 [50, 5]
000000 f4 b9 8d 3e f1 33 06 bf c9 80 8b be 8b d5 4c bc
       0.27680933 -0.52423006 -0.27246693 -0.0125020845
000010 b6 74 a3 be 97 80 e8 3e d3 2c 45 3d ca a7 ac 3e
       -0.3192498 0.45410606 0.04813845 0.33721763
000020 0f 7b 7b 3e 69 7d d0 be c0 55 b7 bc 58 07 7c 3c
       0.24558662 -0.4072068 -0.022379756 0.01538261
000030 d2 46 9b 3e fe 17 44 bf e6 8b d9 3d 46 93 99 be
       0.3032747 -0.7659911 0.10622387 -0.29995173
000040 9b 92 8c bf c7 b0 54 3c 94 74 7e 3e ad 4b 20 3e
       -1.098224 0.0129816 0.24849159 0.15653868
000050 93 a8 9a be 07 8f 6c be 42 0b 6c 3c 92 37 bc be
       -0.30206737 -0.23101436 0.014406981 -0.36761147
000060 3c 45 0d 3e 3e 21 45 3e 3c d7 01 3f 26 83 8c 3e
       0.13795942 0.19250962 0.50719047 0.27443808
000070 bc 72 ec be 6f e6 57 3d 82 a0 df bd ff dc 09 3e
       -0.46181285 0.052709993 -0.10919286 0.1346321
000080 f4 86 4c 3e db 00 93 bf 98 bd c6 be 78 a1 fb bc
       0.19973356 -1.1484636 -0.38816524 -0.030716643
000090 65 a1 e6 3e 19 18 99 bd a0 69 92 3b d3 ae 94 be
       0.4504501 -0.074752994 0.004468158 -0.2903963
0000a0 77 8b 1d 3f b0 a2 29 3d ee b1 da 3e 23 c7 2d 3e
       0.6154093 0.041414917 0.42713875 0.16970496
0000b0 d2 c1 16 bf b6 09 af 3e ef 62 f5 3d ab 08 3d 3e
       -0.58889496 0.34187096 0.11981761 0.18460338
0000c0 47 10 f1 bd 0c 1e a5 be 40 38 3c bf ec c0 cf be
       -0.11770683 -0.32249486 -0.7352333 -0.40576875
0000d0 99 91 5c 3e 94 ba d3 be 5d 00 5e 3f cb f7 ba 3d
       0.21539916 -0.41353285 0.86719304 0.09129294
0000e0 d2 32 c1 be 06 e2 a4 be 47 e3 11 3e 6a 43 f5 3e
       -0.37734085 -0.32203692 0.14246856 0.47902995
0000f0 f5 c0 4f be 21 fa 7b 3e 9f 3b ad bd 1d f7 96 3f
       -0.20288451 0.24607135 -0.084586374 1.1794163
000100 ca 7e 42 bf 36 81 d5 be f0 8c 91 be a1 f2 0e bd
       -0.75974715 -0.41700143 -0.2842784 -0.034899358
000110 cf c4 20 bf de 34 26 3d ba 7c 26 bd 7e 1a 0a bf
       -0.62800306 0.04057776 -0.040646292 -0.53946674
000120 34 16 e7 3b 54 0f e2 be 04 a0 60 3e f2 20 c2 82
       0.0070522074 -0.4415232 0.21936041 -2.8524648e-37
000130 05 10 be 82 c2 6d b3 82 72 66 b9 82 e2 be c2 02
       -2.7927186e-37 -2.6364684e-37 -2.7242108e-37 2.86153e-37
000140 75 6a 2b bf b7 8b b9 be 54 b6 88 3d 80 e9 bc be
       -0.66959316 -0.36239406 0.06675401 -0.36896896
000150 a7 7e 2b 3f f0 96 6a 00 68 a0 30 83 fc 68 29 83
       0.6699013 9.788709e-39 -5.190589e-37 -4.9785152e-37
000160 e8 0f 49 00 4f 30 52 80 e5 e8 86 be 72 b5 e0 be
       6.709697e-39 -7.54784e-39 -0.2634956 -0.43888432
000170 11 ea 19 3e c0 e1 fd be 46 bd e3 3b b0 c5 ce 82
       0.15030695 -0.49586296 0.0069500534 -3.0382447e-37
000180 79 8a bc 82 90 0c b8 82 60 2d b8 82 f5 4e c5 02
       -2.7703597e-37 -2.704358e-37 -2.7062414e-37 2.8991868e-37
000190 73 1e bb 3e 94 39 09 bd f3 fa 1c 3e 98 f9 81 be
       0.36546668 -0.033502176 0.15330105 -0.25385737
0001a0 7a 83 a1 be a1 15 65 be b3 4c 53 3c fb 55 b0 bd
       -0.3154562 -0.22371532 0.0128967045 -0.086101495
0001b0 a1 5e a1 be c2 76 20 3f 55 75 6e 3d b7 6b 37 3e
       -0.3151751 0.6268121 0.058217365 0.17912184
0001c0 a1 94 b9 3e 7f 4b 4d bf d8 78 97 3e 0d 0f bb 3e
       0.36246207 -0.8019332 0.29584384 0.3653492
0001d0 05 3f ad 3e 44 40 86 3e 71 d2 0b bf 01 0b e4 be
       0.33837143 0.26220906 -0.54617983 -0.44539645
0001e0 c7 ac 28 bf d6 f7 4c 3e 87 70 05 3f 97 a2 0e bf
       -0.6588864 0.20016417 0.5212483 -0.5571684
0001f0 06 b8 30 3f 69 de 7a 02 12 38 dd 01 91 34 f0 82
       0.690308 1.8430928e-37 8.1263036e-38 -3.5295002e-37
000200 d4 96 60 83 a3 64 69 02 28 b1 1a 81 ba 5d 0c 83
       -6.6000826e-37 1.7147018e-37 -2.8412436e-38 -4.1249895e-37
000210 71 c2 41 83 b3 11 c2 00 8c d9 a1 80 df bd 14 3f
       -5.694081e-37 1.7822436e-38 -1.4863556e-38 0.5810222
000220 1c fa 05 3f 86 b6 21 3e cf ab 96 be 7b 57 21 bf
       0.5233476 0.15792283 -0.29427955 -0.6302411
000230 bf 4a 71 00 91 7f 59 00 cc 65 ae 00 a9 46 58 00
       1.0404225e-38 8.219121e-39 1.6015894e-38 8.106872e-39
000240 3e d0 6b 80 51 87 38 bc 82 ea 22 3e 44 74 01 3e
       -9.901101e-39 -0.011262731 0.1590977 0.12642008
000250 f5 9f f7 bd 93 28 c3 3e 5c 27 1c 3e fa 2c 37 3f
       -0.12091056 0.38116893 0.1524939 0.71553004
000260 0f 7c 52 3b 72 25 46 bd fa 92 1c bf a7 99 57 bf
       0.0032117402 -0.048375554 -0.6116177 -0.8421883
000270 97 cf 78 bf bd 1f 53 be dd f0 28 3e 37 00 48 3e
       -0.97191757 -0.20617576 0.16498132 0.19531332
000280 8c 97 bb be 66 19 b2 be 81 ac 28 3e 6e 2d 48 be
       -0.3663906 -0.34785002 0.16472055 -0.1954858
000290 93 b4 cd 3d 90 78 0e bd 9e 39 75 be 06 0b 9b 3d
       0.100442074 -0.034782946 -0.2394776 0.07570462
0002a0 07 6d 6b bf 0b b4 2c 3e 83 19 99 bd 02 15 94 3e
       -0.9196324 0.16865556 -0.07475569 0.28922278
0002b0 50 3d 9b 3e 9d d3 0d bd d5 5b 09 3f 75 3a 40 3f
       0.30320215 -0.03462564 0.5365575 0.750892
0002c0 bb 78 26 3f 3d 2e a8 3d 79 c3 20 be 16 07 8e 3d
       0.6502797 0.08211944 -0.15699567 0.06934945
0002d0 49 04 10 00 28 5d fb 82 bd 05 20 83 ce 8a 71 80
       1.470905e-39 -3.6934604e-37 -4.702636e-37 -1.0427205e-38
0002e0 59 20 28 80 fd 20 b5 3e e1 71 08 bf bc e9 b0 be
       -3.685024e-39 0.3537673 -0.53298765 -0.34553325
0002f0 77 ae 9e 3d d6 e9 18 be 28 47 88 01 a2 77 0e 83
       0.0774812 -0.14932951 5.0060614e-38 -4.186738e-37
000300 ca 23 54 82 36 b4 90 01 bd 5c 48 82 fd 62 84 be
       -1.5585571e-37 5.3155836e-38 -1.4720294e-37 -0.25856772
000310 57 d2 6b 3c cf 09 41 3e 50 6b 12 3e b5 e4 ae be
       0.014393411 0.18851398 0.14298749 -0.34158865
000320 55 c1 fb 3d c1 16 e4 be e4 93 da 3e 4f 21 e0 3d
       0.122927345 -0.4454861 0.42690957 0.10943853
000330 06 b7 1b bd a4 e4 ba 82 1a d6 b7 82 75 5e bf 82
       -0.03801634 -2.7461477e-37 -2.7012322e-37 -2.8119143e-37
000340 7c 22 a6 82 13 5f b8 02 2d 7d 8e 3e c7 7e cb bd
       -2.44113e-37 2.709094e-37 0.27829877 -0.0993629
000350 28 40 61 c0 bd 89 14 3e ff d3 b7 3f 83 b0 0c 3f
       -3.5195408 0.14505668 1.4361571 0.54956836
000360 98 0f 8b bc 4e 44 16 be fe b2 51 be d1 62 04 3f
       -0.01697521 -0.14674494 -0.20478436 0.5171328
000370 cc 61 24 3e ec 96 56 3e 01 37 22 bf 18 ef 9b bd
       0.16052932 0.2095601 -0.6336518 -0.07613963
000380 9c 01 35 3f ce de 08 be f7 1c 8e 3d 7d 49 ab 3e
       0.7070558 -0.13366243 0.06939118 0.33454505
000390 c0 87 6c 3f 3f be 81 bd 9a c0 24 be c9 b0 ef 3b
       0.9239464 -0.06335115 -0.16089097 0.0073147756
0003a0 7c c7 0a 3f bd f7 5d bd ae fb ef be d8 00 4a 3e
       0.5421064 -0.05419134 -0.46871704 0.19726884
0003b0 19 94 70 be 8d 21 dc 3e ef 19 c6 3e ef 89 2b bf
       -0.23493995 0.42994347 0.3869166 -0.67007345
0003c0 d2 6f a3 82 19 e7 bd 82 58 a4 ae 82 9a 27 ad 82
       -2.401488e-37 -2.7903698e-37 -2.566133e-37 -2.5442796e-37
0003d0 d6 d1 ac 02 e5 06 17 81 38 77 59 00 66 e0 de 82
       2.5393568e-37 -2.7739266e-38 8.216127e-39 -3.2748767e-37
0003e0 64 1d 37 83 00 1a 15 03
       -5.3812605e-37 4.381701e-37

fc_hidden_layers.0.bias f4 [50]
000000 bc 39 3f 3e 96 bc 10 bd 44 ab ef 3d f5 9f 87 3d
       0.18674368 -0.0353361 0.11702588 0.06622306
000010 8e d8 77 3e b0 fa a4 bc cd 96 18 3e 89 3a 46 3e
       0.24203703 -0.020139068 0.14901276 0.19358267
000020 10 81 1b bd be ca 82 bc 3d 5a ee 3e fb 22 cb 3e
       -0.03796488 -0.015965816 0.4655322 0.39675125
000030 8e 76 b1 be 06 6c cb 3e 52 b3 a0 3d fe 0c b5 82
       -0.34660763 0.39730853 0.07846703 -2.6603017e-37
000040 3b 57 cf 3e 8c a7 08 83 fb 4f d5 3e 89 ad a5 82
       0.4049624 -4.0159142e-37 0.41662583 -2.4344175e-37
000050 2f 5c 72 bc 0e 21 fe 3c 8f 27 8e 3d 99 02 8e 3e
       -0.014792486 0.031021621 0.06941139 0.27736357
000060 e3 45 9f bd 7a bf 08 82 b8 5b fe 82 df f5 78 bc
       -0.07777002 -1.0046653e-37 -3.737459e-37 -0.015195339
000070 98 93 48 83 6d 39 09 3d ee 25 a9 ba ee e8 8e 3e
       -5.8944147e-37 0.03350203 -0.0012904981 0.27912086
000080 23 1c 8b 3e 72 9b 5a 3e f5 27 8b bd f5 6e ab bb
       0.27169904 0.2134836 -0.067947306 -0.005231733
000090 aa 52 e5 82 bc 2c d5 3e e5 f6 e9 82 c1 59 a8 bc
       -3.3695973e-37 0.41635692 -3.4377983e-37 -0.02055061
0000a0 26 0d 8e bd 74 32 bc 82 8c 30 97 3e 98 1d 99 3e
       -0.069361016 -2.7653076e-37 0.29529226 0.2990539
0000b0 ff cf b5 3e a1 7a d8 be a6 a4 30 bd 4b 6a b9 bc
       0.3551025 -0.42281058 -0.04312577 -0.022633692
0000c0 a0 95 9d 82 a4 9e bf 82
       -2.3154957e-37 -2.8155983e-37

fc_hidden_layers.1.weight f4 [50, 50]
000000 94 fe e7 02 70 38 bc 82 0b c1 b6 82 23 1a 96 00
       3.408852e-37 -2.765651e-37 -2.6853298e-37 1.37847e-38
000010 60 00 c4 82 ec 20 ab 82 71 8e be 82 67 9f a4 82
       -2.8799827e-37 -2.5145088e-37 -2.7999748e-37 -2.4189127e-37
000020 43 c8 b0 82 40 88 aa 82 f8 e9 b8 82 e8 95 bd 82
       -2.597582e-37 -2.5057459e-37 -2.7170662e-37 -2.7857096e-37
000030 cc 05 e6 02 8e c7 b7 82 d3 98 1f 03 30 06 11 80
       3.379879e-37 -2.7003972e-37 4.6901334e-37 -1.563423e-39
000040 98 f1 ab 82 20 ac 4e 80 5a 07 b0 82 f4 07 3e 80
       -2.526486e-37 -7.224916e-39 -2.5865095e-37 -5.696654e-39
000050 b3 a6 c4 82 26 e6 cb 82 57 52 af 82 d5 52 ad 82
       -2.8895292e-37 -2.9960268e-37 -2.57612e-37 -2.5467609e-37
000060 79 9a b6 82 ec e7 d3 00 8d 9e 84 81 16 5d b7 82
       -2.683116e-37 1.9460488e-38 -4.871665e-38 -2.6942862e-37
000070 20 92 40 81 e9 8d bb 82 68 e5 ac 82 90 b7 ab 81
       -3.536967e-38 -2.7558633e-37 -2.5404801e-37 -6.307888e-38
000080 d9 38 b8 82 af c1 bd 82 d4 8b a6 82 24 96 b7 82
       -2.7069e-37 -2.7882223e-37 -2.4471765e-37 -2.697561e-37
000090 28 dd 4f 81 c8 bc c0 82 18 fc 94 81 08 46 c0 82
       -3.8178567e-38 -2.832022e-37 -5.472835e-38 -2.825206e-37
0000a0 bc a8 c9 02 c3 72 ae 01 3c e3 0c 83 c8 30 aa 82
       2.9631144e-37 6.408218e-38 -4.1403155e-37 -2.5007254e-37
0000b0 ca a6 ad 82 92 fb 3d 83 d2 89 b8 82 02 42 c0 82
       -2.5515798e-37 -5.5830897e-37 -2.7115475e-37 -2.824975e-37
0000c0 24 94 8e 81 18 92 11 01 ed 18 6e 3c 95 0f 8c 3d
       -5.2375133e-38 2.673711e-38 0.01453231 0.068389095
0000d0 00 2e c0 3d e4 0e 86 bd bf 5b 45 3e 7a 41 7d 3e
       0.09383774 -0.06545809 0.1927328 0.24732009
0000e0 5b ca 07 3e e2 98 45 bd 27 ea 0b 3e 02 e9 6d 3d
       0.13260786 -0.048241504 0.13663541 0.05808354
0000f0 dd 7d e6 3c 7f f3 50 be 45 a4 98 be a2 cc 07 3d
       0.028136188 -0.20405386 -0.29812828 0.033154137
000100 4e a3 2d 3d 70 ed b0 02 b7 31 cb 3d 71 87 90 80
       0.042392068 2.5997158e-37 0.09921592 -1.3272899e-38
000110 97 f4 89 3d f8 f1 eb 82 47 10 ea bd bb 38 5a be
       0.06736105 -3.466903e-37 -0.11428886 -0.21310703
000120 9c 89 3a 3e fa 28 aa bc 52 ed 7b be e3 b2 23 83
       0.18216556 -0.020771492 -0.2460225 -4.8106747e-37
000130 e5 4c 3a 00 d9 6e 04 3e 90 37 23 00 0b 54 00 bd
       5.354043e-39 0.1293291 3.234174e-39 -0.03133015
000140 97 38 2a be e6 5b 4f be 17 c8 04 3e b7 a2 02 3e
       -0.1662315 -0.202499 0.12966953 0.12757383
000150 e7 3d 2b bf 70 0d 01 3e 33 a3 a0 81 f9 49 96 3c
       -0.6689133 0.12602782 -5.9008897e-38 0.01834582
000160 9a eb ac 82 03 a6 1c be 4d bc 4b be 94 34 b7 02
       -2.5408357e-37 -0.15297703 -0.1989605 2.6919612e-37
000170 7b 00 af be 9c 08 6c bd e1 12 e5 bd 95 ce 36 bf
       -0.34180054 -0.057625398 -0.111852415 -0.7140897
000180 0d 11 31 3e e9 29 e7 bd bf ee b4 82 9a a4 b0 80
       0.1729166 -0.112872906 -2.6585656e-37 -1.6222095e-38
000190 5f e1 1b 83 41 a1 d5 82 cc e2 e2 82 b8 98 90 01
       -4.580912e-37 -3.1390092e-37 -3.333789e-37 5.3116386e-38
0001a0 90 26 22 83 dd a5 dc 82 ee ab d3 82 06 fa d8 82
       -4.765179e-37 -3.2421296e-37 -3.1102346e-37 -3.1881854e-37
0001b0 8d de d6 82 11 11 e1 82 8d 07 fb 82 86 2d 5a 03
       -3.1572212e-37 -3.3070574e-37 -3.688547e-37 6.41167e-37
0001c0 6f 47 0b 83 30 1c ee 82 e6 63 15 81 df 73 88 01
       -4.093043e-37 -3.4987136e-37 -2.7438651e-38 5.0124777e-38
0001d0 4d eb 0c 83 8f 68 6e 81 06 e0 d0 82 65 af 17 01
       -4.1412414e-37 -4.3788713e-38 -3.0691436e-37 2.786016e-38
0001e0 48 c1 e6 82 d8 9d bb 81 45 c2 eb 82 f0 1e c2 82
       -3.39064e-37 -6.8919446e-38 -3.4641652e-37 -2.8523495e-37
0001f0 5c ba 21 83 7b 87 7a 81 88 87 b4 00 94 63 c6 82
       -4.7527578e-37 -4.601495e-38 1.6579009e-38 -2.915064e-37
000200 78 6d 3b 81 8a 19 16 83 36 2d c4 82 3d f1 10 00
       -3.4425016e-38 -4.4110356e-37 -2.8825561e-37 1.555908e-39
000210 b3 d8 e9 82 23 19 1d 83 18 a3 25 83 57 81 cb 82
       -3.4360652e-37 -4.616701e-37 -4.8676364e-37 -2.9902407e-37
000220 92 0b 1e 81 72 a5 00 83 88 3a 1f 01 c5 72 f1 82
       -2.9028318e-38 -3.780574e-37 2.9245682e-38 -3.5477642e-37
000230 51 eb 0b 83 94 bb 26 81 5a 06 35 01 60 86 02 83
       -4.111856e-37 -3.0623965e-38 3.3249007e-38 -3.835782e-37
000240 56 46 0a 83 be 23 63 01 33 ed d1 82 f7 e0 d2 82
       -4.0635297e-37 4.171896e-38 -3.0845936e-37 -3.098585e-37
000250 87 ed 0d 80 5f 26 42 01 31 39 0d 3e 73 8a 91 3e
       -1.27907e-39 3.5659702e-38 0.13791348 0.2842594
000260 ed 9c 7f 3e 45 f9 a5 3d 96 ee bb 3d 42 cb 17 3d
       0.24962206 0.08104185 0.09176366 0.037059076
000270 52 2c 30 bb 0d a9 70 bd b3 47 91 3e b6 c8 3e 3d
       -0.0026881886 -0.05875497 0.28375015 0.04657813
000280 20 85 84 bd b0 a3 b1 bd ae ce eb 3e 0b bc 02 3e
       -0.06470704 -0.08673799 0.46056122 0.12767045
000290 63 5e 68 3d a0 5b be 02 d5 bb 78 be 7a 9a 7a 80
       0.05673064 2.797058e-37 -0.24290402 -1.1259346e-38
0002a0 27 f5 c7 3d 38 a8 cc 02 ae 7c bb 3d d1 02 6e be
       0.09763556 3.0071659e-37 0.0915464 -0.23243262
0002b0 7d f8 66 3e 27 b5 4f 3e 4b e4 50 be 98 a9 1d 02
       0.22555728 0.20283948 -0.20399587 1.1583209e-37
0002c0 cd a8 ba 00 bd 6f 30 3e b5 b1 7f 80 c4 8d dc bd
       1.7141957e-38 0.17230125 -1.1726857e-38 -0.10769227
0002d0 4a 43 27 3e 68 e9 c6 be 1e 67 fb 3d 78 e0 13 3e
       0.16334262 -0.3884995 0.122755274 0.14441097
0002e0 91 6a ea bd 68 58 73 bd c7 ea 51 00 28 d1 68 3e
       -0.11446107 -0.059410483 7.522897e-39 0.22736037
0002f0 8a 93 bd 02 bd 65 1b 3e e4 b8 d8 3d 61 36 b8 82
       2.7855737e-37 0.15175529 0.1058214 -2.7067582e-37
000300 df e8 35 bf d6 39 f0 bd 07 01 1e be 1f d2 31 3f
       -0.7105846 -0.11729781 -0.1543008 0.69461244
000310 57 e0 8c 3e f5 a4 39 3e 01 6d b7 02 2d d9 77 80
       0.27514908 0.18129332 2.6951998e-37 -1.1006332e-38
000320 42 80 cf 82 6f e9 b3 82 66 b5 b2 82 ad c7 15 03
       -3.0489533e-37 -2.643567e-37 -2.6258867e-37 4.401638e-37
000330 2e c4 d0 82 f1 99 bc 82 6e eb b1 82 09 c3 be 82
       -3.0675455e-37 -2.7712475e-37 -2.6142943e-37 -2.8029936e-37
000340 6f d6 b9 82 0e 8d bd 82 75 a8 ba 82 29 c8 c8 82
       -2.7306386e-37 -2.7852015e-37 -2.7426933e-37 -2.9502245e-37
000350 c1 c8 e3 02 c2 60 c2 82 82 fb 0a 03 7a e5 0e 81
       3.346988e-37 -2.8561274e-37 4.084327e-37 -2.6245922e-38
000360 d6 12 b2 82 2e 0a 94 01 f2 63 c7 82 b4 01 48 01
       -2.616556e-37 5.438122e-38 -2.9297788e-37 3.673542e-38
000370 f6 7a cd 82 7b 49 03 83 aa f2 c5 82 29 27 c2 82
       -3.0192619e-37 -3.858179e-37 -2.908583e-37 -2.8528215e-37
000380 fe 0d d1 82 6a 8a 41 00 c0 3b a4 01 9d 1c be 82
       -3.071782e-37 6.018961e-39 6.032982e-38 -2.7934414e-37
000390 cc 61 c3 80 a2 bf dc 82 0c 6c c5 82 1b 38 dd 82
       -1.7943005e-38 -3.2436086e-37 -2.9008564e-37 -3.2505234e-37
0003a0 95 e9 b3 82 6f 94 c0 82 b8 0d d3 82 e4 06 ba 82
       -2.6435756e-37 -2.8297061e-37 -3.1011538e-37 -2.7334199e-37
0003b0 2f 36 a7 01 da 5e bf 82 5c c7 48 01 ba 34 d4 82
       6.142386e-38 -2.811937e-37 3.6877232e-38 -3.1180864e-37
0003c0 cc f3 c6 82 05 54 91 81 24 c9 0c 83 d1 69 c3 82
       -2.9233418e-37 -5.338515e-38 -4.13732e-37 -2.871341e-37
0003d0 4c 19 c0 82 8c 57 02 83 a9 5b c8 82 cc f5 ba 82
       -2.8226384e-37 -3.8304065e-37 -2.943997e-37 -2.7471324e-37
0003e0 08 42 95 01 37 65 47 00 da b3 3c 3c fa 41 c0 bd
       5.4828706e-38 6.556629e-39 0.011517489 -0.09387584
0003f0 9e e7 79 3e f2 21 44 3c cc 5e 42 3e 6c 90 3a 3d
       0.24404761 0.011970984 0.18981475 0.045547888

fc_hidden_layers.1.bias f4 [50]
000000 5b bc a5 82 18 03 0c 3c 08 b2 c6 82 e0 0f a3 bd
       -2.4352682e-37 0.0085456595 -2.919567e-37 -0.07962012
000010 bd 60 b0 82 54 07 0f 3e bf aa d1 3d c7 17 cc 82
       -2.59164e-37 0.13967639 0.10237645 -2.9988753e-37
000020 02 f6 29 3e a9 d7 22 83 14 a3 c5 3d 72 13 11 83
       0.16597751 -4.7855087e-37 0.09650245 -4.2633992e-37
000030 4e bd ed 3c 12 b4 f2 bc 56 03 a9 3d 7c f9 de 3c
       0.029020932 -0.02962688 0.082525894 0.027218573
000040 f0 9e 47 3e 49 57 ac 3d 1b 21 26 3d ac 59 eb 3d
       0.19494224 0.08415086 0.040558916 0.11491713
000050 09 45 b0 82 d3 9e bf 3d 3e c1 4e 3e 7b 73 06 3e
       -2.59005e-37 0.09356465 0.20190904 0.1312999
000060 e6 55 ee 3d 32 57 be 82 a0 c0 1c 3e 15 2d 04 83
       0.116374776 -2.7968038e-37 0.15307856 -3.8843065e-37
000070 7d 10 11 3e 50 80 d3 3d 9d 2e 04 bd 1c 00 98 3b
       0.14166446 0.10327208 -0.032271016 0.004638685
000080 bb b4 b6 82 e6 79 da 3c b0 8b 81 82 e0 36 6f bd
       -2.684623e-37 0.026669454 -1.9035023e-37 -0.058401942
000090 ec 90 c3 3d 01 ca b7 82 77 52 b1 82 7e 6a bc 82
       0.09549126 -2.7005378e-37 -2.6055145e-37 -2.768524e-37
0000a0 a7 6a 8a 3d 8b 53 6d 3e 19 30 bf 82 72 c1 85 3d
       0.067586236 0.231764 -2.8092534e-37 0.065310374
0000b0 43 6b 1b 83 08 26 a3 3d 9d 4b 8b 3d 5d 37 80 3e
       -4.5673537e-37 0.07966238 0.068015315 0.2504224
0000c0 d3 40 5a bc 62 19 e1 3d
       -0.013321119 0.109911695

fc_hidden_layers.2.weight f4 [50, 50]
000000 9d 8d e0 82 03 bd c7 82 72 1f 28 00 48 f0 b1 82
       -3.2995124e-37 -2.934891e-37 3.6847e-39 -2.6145727e-37
000010 e3 84 16 01 35 72 b6 82 3c 7c ba 82 a4 30 38 81
       2.764599e-38 -2.6808048e-37 -2.740155e-37 -3.383036e-38
000020 cb c0 ce 82 0d 8e 8a 01 9e e7 ba 82 22 0d a9 00
       -3.0379637e-37 5.0897027e-38 -2.7463185e-37 1.552491e-38
000030 8d d5 cd 82 e0 8a bb 82 f5 f0 29 83 b3 f8 af 82
       -3.0244615e-37 -2.755689e-37 -4.994124e-37 -2.5856685e-37
000040 6b dc b9 82 4a 95 cc 82 22 5d d9 82 f9 64 07 83
       -2.730982e-37 -3.0060794e-37 -3.193874e-37 -3.9788845e-37
000050 1a 82 85 01 db b7 c5 82 5b 0c b6 82 ae 3f b9 81
       4.904317e-38 -2.9052076e-37 -2.6749588e-37 -6.8049643e-38
000060 af 51 cb 82 24 8c 77 01 55 d6 be 82 5c 8c aa 00
       -2.9875053e-37 4.546728e-38 -2.8041011e-37 1.5662386e-38
000070 42 57 c0 82 1a 5f d0 82 33 46 c7 82 39 d2 b8 82
       -2.8261948e-37 -3.0617439e-37 -2.9280714e-37 -2.7157032e-37
000080 96 d9 8c 01 fb 98 b3 82 2e 2c 35 81 4c 9e b1 82
       5.17401e-38 -2.6389493e-37 -3.3276147e-38 -2.609867e-37
000090 92 c9 cf 82 0c 1c 9f 01 74 31 9b 81 58 55 ab 00
       -3.0531612e-37 5.844762e-38 -5.700897e-38 1.5734485e-38
0000a0 5c 73 b4 82 98 02 be 82 a7 55 9d 81 74 37 0a 03
       -2.6514836e-37 -2.791948e-37 -5.7795597e-38 4.061821e-37
0000b0 cc 3b b4 01 5a ae b1 82 47 2b c6 82 13 b7 bc 82
       6.620736e-38 -2.6107885e-37 -2.9118325e-37 -2.7729197e-37
0000c0 bf ca e5 02 41 67 af 82 21 ef 9d 00 ac 24 f5 02
       3.3764896e-37 -2.5773204e-37 1.4503956e-38 3.6020563e-37
0000d0 ee e8 53 01 f3 1d db 82 c2 44 74 01 92 58 e8 02
       3.8921698e-38 -3.2196348e-37 4.4865053e-38 3.4140173e-37
0000e0 c1 87 ec 82 b6 bb 60 81 4f 72 09 83 a7 d4 54 80
       -3.4755002e-37 -4.1276978e-38 -4.03919e-37 -7.790467e-39
0000f0 98 c5 ed 82 6c 08 08 81 1d 3f e1 82 c8 0d e9 82
       -3.4937433e-37 -2.4985297e-38 -3.3097004e-37 -3.4244183e-37
000100 bd 50 0c 83 64 6b e5 82 52 ef cb 82 da 4e 0f 83
       -4.1234985e-37 -3.3710165e-37 -2.9965532e-37 -4.211444e-37
000110 25 d0 e3 02 47 3e ee 02 65 5a 95 80 67 56 e1 02
       3.3474121e-37 3.5006702e-37 -1.3715916e-38 3.3110371e-37
000120 ab 65 e8 82 e7 4f 12 83 51 e9 f8 82 e0 03 8d 01
       -3.414769e-37 -4.2997267e-37 -3.6574242e-37 5.180078e-38
000130 8f 2b 01 83 31 ed 80 80 8a 9c eb 02 49 b0 f6 82
       -3.7959696e-37 -1.1840032e-38 3.4619996e-37 -3.6247634e-37
000140 77 88 f5 82 4c 07 f1 82 59 fd 8b 01 82 12 f0 82
       -3.6077841e-37 -3.5415956e-37 5.142407e-38 -3.5275453e-37
000150 84 5b 26 80 09 1f ef 82 fb 10 f4 02 16 00 51 80
       -3.522578e-39 -3.5135707e-37 3.5862324e-37 -7.438706e-39
000160 25 2c 85 01 bc 69 a7 81 bb ef f5 82 fa 8c dd 02
       4.891983e-38 -6.1497833e-38 -3.6137113e-37 3.2553948e-37
000170 7c 54 04 81 55 dc 33 00 f0 a3 ad 01 2e 69 e8 82
       -2.4305186e-38 4.76265e-39 6.37854e-38 -3.4149706e-37
000180 2a 0c ea 82 f6 47 d6 02 31 f0 47 00 c7 36 db 82
       -3.4390192e-37 3.1485777e-37 6.606485e-39 -3.2210599e-37
000190 a2 a7 98 01 ec 16 b9 82 40 91 4e 00 58 59 ab 82
       5.6076523e-38 -2.7196463e-37 7.215275e-39 -2.5177473e-37
0001a0 93 1f 12 81 e3 13 af 82 d0 7d c1 82 b9 31 92 01
       -2.6838618e-38 -2.5725353e-37 -2.8431014e-37 5.370328e-38
0001b0 f9 f8 b5 82 de 3a 3d 81 7f e6 c3 82 d8 df 33 80
       -2.6738463e-37 -3.4756053e-38 -2.8784973e-37 -4.76391e-39
0001c0 fe 6a b7 82 62 de b3 82 94 ad e8 82 f0 ec b7 82
       -2.6950844e-37 -2.6429328e-37 -3.4188965e-37 -2.7025429e-37
0001d0 d8 07 ae 82 62 35 c4 82 21 d4 ae 82 50 56 dd 82
       -2.5571504e-37 -2.8830252e-37 -2.5688758e-37 -3.2522572e-37
0001e0 a8 c1 85 01 19 59 c2 82 54 b8 bd 82 e0 b6 16 83
       4.9134367e-38 -2.8556878e-37 -2.7876853e-37 -4.429097e-37
0001f0 5d 12 b8 82 d1 24 74 81 08 d9 ae 82 3e 64 e3 80
       -2.704691e-37 -4.4842137e-38 -2.5691572e-37 -2.0882618e-38
000200 54 cd c6 82 6b 3a c0 82 30 a1 c0 82 5c e7 bb 82
       -2.9211338e-37 -2.8245395e-37 -2.8304382e-37 -2.7609974e-37
000210 98 c4 e2 80 88 9b bd 82 0c 2a 20 81 1d 3e b6 82
       -2.0825347e-38 -2.7860325e-37 -2.9417526e-38 -2.6778148e-37
000220 ec a1 bb 82 00 85 5b 81 60 b0 5a 80 7b b2 98 81
       -2.757012e-37 -4.031937e-38 -8.328466e-39 -5.609209e-38
000230 20 f2 af 82 a7 e9 be 82 89 38 cd 00 b2 ff b8 82
       -2.5852912e-37 -2.80521e-37 1.8846558e-38 -2.7183132e-37
000240 f0 e2 1f 81 68 a6 b9 82 fc 82 b4 82 79 78 ac 82
       -2.9366507e-38 -2.727882e-37 -2.6523804e-37 -2.5342276e-37
000250 75 51 aa 82 37 80 aa 82 d1 fb 3c 01 7d 76 cc 82
       -2.502601e-37 -2.5052847e-37 3.4710816e-38 -3.0043115e-37
000260 86 64 ad 81 af 92 c7 82 e4 d1 f0 00 b5 d4 c0 82
       -6.369441e-38 -2.9324614e-37 2.2115814e-38 -2.8333952e-37
000270 f6 46 db 82 be 98 63 01 70 ae fb 82 ba 64 bc 00
       -3.2219887e-37 4.1802902e-38 -3.6981257e-37 1.7301207e-38
000280 e2 31 cf 82 c6 b6 46 01 7a f3 d2 82 e0 e0 bb 82
       -3.0444548e-37 3.649799e-38 -3.0996475e-37 -2.7606252e-37
000290 f2 0a e3 82 c5 e8 ce 82 a3 98 c8 82 f0 cd ee 82
       -3.3360935e-37 -3.0402583e-37 -2.9474968e-37 -3.508916e-37
0002a0 81 32 c8 82 b6 c4 e1 82 7c b4 48 81 54 d0 c2 82
       -2.9416347e-37 -3.3173685e-37 -3.686369e-38 -2.8625312e-37
0002b0 c1 94 cd 82 55 27 f8 82 d1 e2 cf 82 d8 e7 78 80
       -3.0207423e-37 -3.64629e-37 -3.0546103e-37 -1.110343e-38
0002c0 a4 e9 d0 82 c8 2b 8e 80 b6 58 ca 82 93 0d df 82
       -3.0696956e-37 -1.3056346e-38 -2.973215e-37 -3.2774696e-37
0002d0 bf 48 d4 82 da 1e dd 82 04 06 8f 01 ee a3 b8 82
       -3.1192355e-37 -3.249074e-37 5.2538536e-38 -2.713046e-37
0002e0 80 1e 13 01 b8 85 d2 82 ed a7 d9 82 b2 fe 00 01
       2.7021519e-38 -3.0933478e-37 -3.198167e-37 2.3692622e-38
0002f0 10 1b 25 81 0f b7 73 00 7d b0 ca 82 36 5c d1 82
       -3.032513e-38 1.0626751e-38 -2.9782532e-37 -3.0762716e-37
000300 0f e7 0d 81 8f d7 20 83 56 26 52 01 f8 af bd 82
       -2.6063386e-38 -4.7267223e-37 3.8598413e-38 -2.7872055e-37
000310 06 f2 c0 82 a7 64 d0 82 a9 35 eb 82 01 02 ca 82
       -2.835078e-37 -3.0620625e-37 -3.4560946e-37 -2.9682383e-37
000320 09 d2 bf 02 03 02 13 3e 98 f1 cf 82 2c 61 0c be
       2.8185482e-37 0.14356236 -3.0554584e-37 -0.13708943
000330 08 fc cc 02 a7 df b0 3d 87 6b 44 3e 8b 6b bc 02
       3.0119765e-37 0.08636408 0.19181643 2.7685844e-37
000340 fc 5b bc 3d 24 95 5f 00 87 82 30 3d 16 1c ca 00
       0.09197232 8.777874e-39 0.04309323 1.8560846e-38
000350 75 ef 98 bd a9 3f 67 bd c6 ab ba 3e 50 52 05 3b
       -0.07467548 -0.056457195 0.36459178 0.0020343252
000360 7d 4d 9a 3d 1c 5b 96 3d 98 19 05 be fa 86 5f 3d
       0.07534311 0.073415965 -0.12998044 0.054572083
000370 e7 5b d4 02 18 27 5e bd 71 60 14 3e 84 37 87 3e
       3.120335e-37 -0.0542365 0.14489914 0.26409543
000380 5f 13 36 bd 22 c0 e7 82 17 20 e8 3d 72 bd 50 03
       -0.044452067 -3.4052678e-37 0.11334246 6.134318e-37
000390 ce 51 13 3e f1 3c 14 3e 94 6d f7 3c 9d 96 fb 3d
       0.14386675 0.14476372 0.030203618 0.122845866
0003a0 da 72 dc 02 97 4f 00 be f1 e1 2a 82 a9 fe dc bd
       3.2392016e-37 -0.12530361 -1.255447e-37 -0.1079076
0003b0 2c 90 b9 3d 19 ff be 82 0c 3d af 02 e8 94 ad 02
       0.09060702 -2.806441e-37 2.5748978e-37 2.5505533e-37
0003c0 66 79 98 bd 5e b3 4d bd 26 ad e9 02 7f 80 9e bf
       -0.0744503 -0.050219886 3.4335655e-37 -1.2382964
0003d0 4a 3c 1d 01 2a 1f 17 3d 59 f4 81 3e 84 b1 6c be
       2.88796e-38 0.036894955 0.25381735 -0.23114592
0003e0 ec 51 a5 3d 95 83 69 bc 52 ae 58 01 34 05 e0 82
       0.08072266 -0.014252563 3.9798003e-38 -3.2916828e-37
0003f0 6c 58 c0 80 c0 17 c0 82 19 f5 be 81 fb 53 d3 82
       -1.7664135e-38 -2.8225496e-37 -7.0146675e-38 -3.1051866e-37

fc_hidden_layers.2.bias f4 [50]
000000 c0 08 b0 82 8e fb da 82 02 29 b0 82 25 ab c2 82
       -2.5865898e-37 -3.2176606e-37 -2.5884413e-37 -2.860397e-37
000010 1c f3 f3 3c e6 ca bf 82 55 1e 03 3e 82 ee b3 82
       0.02977901 -2.8181386e-37 0.1280454 -2.6438583e-37
000020 a3 00 a1 bd c7 a7 bf 82 25 1d c6 82 18 e5 04 3e
       -0.078614496 -2.8161227e-37 -2.9110213e-37 0.12978017
000030 75 51 ab 82 5d 92 15 bd d1 fa 03 83 d2 17 b4 82
       -2.5172946e-37 -0.036516536 -3.8785363e-37 -2.6462295e-37
000040 ce 3b ab 82 8d 7c c8 3d 6c 94 ac 82 d2 65 c7 82
       -2.5160518e-37 0.09789381 -2.5358319e-37 -2.9298864e-37
000050 dc 51 9f 82 16 2e ba 82 8a 07 b7 3d 23 43 1e 3e
       -2.3409935e-37 -2.7356696e-37 0.08936985 0.15455298
000060 0b 51 34 3e 5c 28 a4 bd e0 58 9d 3d ed 29 9f 3e
       0.1760904 -0.080155104 0.07682967 0.31086674
000070 d4 30 5b 3e 60 0a ba 82 14 e6 aa 82 28 cb b6 82
       0.21405345 -2.7336199e-37 -2.5111313e-37 -2.6859102e-37
000080 00 7d b1 82 d6 28 74 3e cf df 16 3e f7 7a b6 82
       -2.607956e-37 0.23843703 0.14733814 -2.6813075e-37
000090 91 d6 23 3e 5f ba 53 3e f9 aa 82 3e dc fd 81 3d
       0.1599982 0.20676564 0.25521067 0.06347248
0000a0 d8 02 55 bd 7b 70 2d 3e f1 8f 89 3e 8d cf 89 bd
       -0.052004665 0.16937439 0.2686763 -0.0672904
0000b0 01 30 54 3e ff 2d d4 3d 50 36 a7 82 0f 6d aa 82
       0.20721437 0.103603356 -2.4569618e-37 -2.5041852e-37
0000c0 7b 56 a7 82 aa 16 10 3e
       -2.4588082e-37 0.14071146

fc_hidden_layers.3.weight f4 [50, 50]
000000 66 5b 3c 01 33 88 b3 01 8a e8 9f 01 63 96 0c 01
       3.4595722e-38 6.594965e-38 5.874105e-38 2.5821836e-38
000010 8c 9d 09 82 bf d8 48 01 86 64 a7 82 5d 0f 41 80
       -1.0110384e-37 3.6889706e-38 -2.4596142e-37 -5.974819e-39
000020 ac d1 86 82 6a 98 7c 81 c0 91 d6 80 0b 2a b9 82
       -1.9809876e-37 -4.6394442e-38 -1.9705081e-38 -2.7207438e-37
000030 18 2a 7a 80 fc 06 ab 82 eb 50 7d 80 5e f3 78 01
       -1.1219031e-38 -2.51302e-37 -1.1508465e-38 4.5725013e-38
000040 e6 d9 7a 01 5a 80 b1 82 22 22 99 00 36 17 4d 81
       4.6074083e-38 -2.6081483e-37 1.4063075e-38 -3.7669206e-38
000050 64 03 85 01 a8 3c cc 00 32 0f bd 82 e6 54 9e 82
       4.886135e-38 1.87562e-38 -2.7779776e-37 -2.3264743e-37
000060 06 8d bc 82 05 48 88 82 e9 a8 b4 82 3d d1 bf 82
       -2.770506e-37 -2.0024741e-37 -2.6545573e-37 -2.8185025e-37
000070 36 a7 c1 82 19 b5 35 81 12 cb 65 81 b1 42 b8 00
       -2.8454776e-37 -3.337438e-38 -4.2206353e-38 1.6921656e-38
000080 e0 a8 bb 01 7e b3 b1 82 d0 e2 bc 82 b4 01 29 81
       6.8935275e-38 -2.6110836e-37 -2.7754301e-37 -3.104162e-38
000090 ee e0 93 82 ad 76 c0 82 c1 3f bb 82 da ac a7 82
       -2.1728812e-37 -2.827998e-37 -2.7513773e-37 -2.4637657e-37
0000a0 a0 54 a0 82 33 44 af 82 22 da b8 82 18 8c af 82
       -2.355846e-37 -2.5753083e-37 -2.7161572e-37 -2.5794349e-37
0000b0 39 52 a8 82 ee 16 a2 82 4d 4a 55 80 1a f0 37 00
       -2.4732575e-37 -2.3816922e-37 -7.832671e-39 5.137085e-39
0000c0 e8 3f 30 00 81 96 c5 82 e2 b3 cb 02 4c d0 ce 82
       4.431029e-39 -2.9032933e-37 2.9931417e-37 -3.0388536e-37
0000d0 c9 f4 bb 02 3f 16 d2 02 57 6d 4a bd d2 ff bc 02
       2.761768e-37 3.0869495e-37 -0.04942068 2.777095e-37
0000e0 fe b0 5e 3e 88 b0 c6 82 c3 ce d5 3d d0 16 cd 82
       0.21747205 -2.919481e-37 0.10439827 -3.0135136e-37
0000f0 4a 66 ba 02 f2 9d 58 3e 57 62 b3 02 e5 1f dc bc
       2.7388955e-37 0.21154001 2.635813e-37 -0.026870677
000100 7e c6 59 03 a0 f5 b9 02 d3 ab b9 02 9a 5d a2 3e
       6.3998426e-37 2.7324289e-37 2.728193e-37 0.31712037
000110 6d 80 b3 02 a2 fd b9 02 00 43 ba 02 18 27 af 02
       2.63754e-37 2.7328885e-37 2.73687e-37 2.5736378e-37
000120 2f d9 99 bd 49 cc 4b bc 20 45 8b bd 89 9a 34 3e
       -0.075121276 -0.012438842 -0.06800294 0.17637075
000130 ed 2d 65 bd fe 62 8c 3e 07 d9 5b 3e 1c e8 ae 02
       -0.055952 0.27419275 0.21469508 2.5700226e-37
000140 be bb bc 82 18 f8 af 02 2e 94 a7 82 b8 95 5b bd
       -2.7731876e-37 2.5856338e-37 -2.4623496e-37 -0.05360958
000150 48 f6 db 3d 70 83 dd 02 5d 2a 31 3d 63 13 2a be
       0.10740334 3.2548473e-37 0.04325329 -0.16608958
000160 6a 6e d3 bd 50 48 c2 3d 36 72 d5 3d ab 5f f1 3d
       -0.10323794 0.09486449 0.10422175 0.11785825
000170 2e a9 36 3e d0 a2 7e be e1 89 81 3d 06 4c f8 3d
       0.17837974 -0.24866796 0.063251264 0.12123875
000180 16 73 ac 82 76 89 01 03 5a 69 a8 02 cd fd 8c 3a
       -2.5339185e-37 3.806749e-37 2.474585e-37 0.0010756791
000190 0a 59 86 01 67 88 43 80 d6 f7 3c 00 75 8c 8a 01
       4.935159e-38 -6.20191e-39 5.599037e-39 5.089474e-38
0001a0 cc 3d 64 00 68 6e 29 81 4d 8f 5d 00 7e 52 70 80
       9.205718e-39 -3.111961e-38 8.592108e-39 -1.0315168e-38
0001b0 0d 54 7e 00 b8 e6 65 01 e4 cb 3f 81 4a a4 50 00
       1.1601424e-38 4.222619e-38 -3.5227444e-38 7.405776e-39
0001c0 94 d4 78 01 77 15 8f 00 4c 1d f1 00 1c ad 32 01
       4.5702923e-38 1.3140176e-38 2.2142864e-38 3.2817637e-38
0001d0 c4 d2 b9 00 86 dd 4f 00 5f 67 09 80 5c 67 ea 00
       1.7065175e-38 7.334472e-39 -8.63602e-40 2.1526584e-38
0001e0 b7 d5 83 01 24 17 4c 81 8a 6c 14 83 53 bf 50 83
       4.8428466e-38 -3.7485485e-38 -4.3617888e-37 -6.1345336e-37
0001f0 9a 99 26 83 29 bf 88 00 03 09 8a 00 0f ee 5a 00
       -4.895934e-37 1.2558203e-38 1.2676531e-38 8.350594e-39
000200 1f ca 56 83 95 b5 a3 00 79 39 82 81 f3 e0 a6 01
       -6.312097e-37 1.5034325e-38 -4.783693e-38 6.1301556e-38
000210 09 40 6b 81 51 84 16 83 80 8a 2a 83 16 51 c7 00
       -4.3208626e-38 -4.423293e-37 -5.01175e-37 1.8304352e-38
000220 4c c3 8b 00 15 6a 01 83 44 0d 4b 83 f8 89 75 00
       1.2835193e-38 -3.803147e-37 -5.9671566e-37 1.0794247e-38
000230 52 d5 42 83 d4 4e 7c 00 ed 2e 7f 00 28 b4 15 83
       -5.7256356e-37 1.141588e-38 1.1679942e-38 -4.3993974e-37
000240 fb b8 7b 00 28 b7 34 83 12 86 94 01 b8 27 6e 00
       1.1362125e-38 -5.31075e-37 5.4558995e-38 1.0116153e-38
000250 99 68 8e 81 8d 0e 1c 83 46 8b c5 02 bd 2d 38 03
       -5.231265e-38 -4.5860983e-37 2.9026487e-37 5.4125245e-37
000260 31 79 b9 82 89 ae 00 83 f3 db 74 be f4 68 be 02
       -2.7252867e-37 -3.7816176e-37 -0.23912029 2.797823e-37
000270 70 fd 3b be b4 e1 c2 02 2a 32 de 3d 82 51 ea 82
       -0.18358397 2.8635285e-37 0.10849412 -3.4429993e-37
000280 59 8a b4 02 a5 a1 c7 ba 32 bd d3 02 4e 7d a4 3e
       2.652803e-37 -0.0015230669 3.1112256e-37 0.3212685
000290 2a 57 de 82 6d 50 c8 02 da 10 ae 02 99 e4 59 3e
       -3.2669998e-37 2.943352e-37 2.5576674e-37 0.2127861
0002a0 8e a6 b5 02 1b a9 cd 82 1e d6 ad 82 47 7d ad 02
       2.6691157e-37 -3.0219105e-37 -2.5542963e-37 2.549197e-37
0002b0 85 f8 18 bb 15 12 0b bf 8a 3c d1 3d 56 18 3f 3e
       -0.0023341489 -0.54324466 0.10216625 0.18661627
0002c0 73 12 11 3d 9f fb 3d be 8c 3c 4e 3d 10 2e b4 02
       0.035417985 -0.18553017 0.05035071 2.6475061e-37
0002d0 d1 db b7 82 89 85 c4 82 b8 1b c1 82 d8 54 1d bd
       -2.7015602e-37 -2.8876257e-37 -2.837471e-37 -0.03841099
0002e0 54 72 2e 3e 32 81 05 03 27 69 4c be 98 c8 ef bd
       0.170358 3.9233496e-37 -0.19961987 -0.11708182
0002f0 41 ea 9b 3d 84 a1 4c 3e d8 d0 64 bf d5 f7 21 3d
       0.0761304 0.19983488 -0.8938117 0.03954299
000300 18 1f 16 3c fd fc 36 be 87 fd 37 3e 3f 3b 6d 3e
       0.009162687 -0.17869945 0.17967807 0.23167132
000310 7f 7d bc 82 8e 82 79 81 89 5b bb 02 cf 5b a8 3d
       -2.7696148e-37 -4.5827745e-38 2.752972e-37 0.08220636
000320 01 dd 12 01 7c 54 6f 80 c0 7f 8f 81 15 0f 68 81
       2.6974527e-38 -1.0224047e-38 -5.2713216e-38 -4.262249e-38
000330 34 b1 0b 80 e4 83 93 01 4b d5 2f 83 6b 99 22 00
       -1.073759e-39 5.4188526e-38 -5.1672726e-37 3.177443e-39
000340 44 fa 14 80 c8 a8 1e 01 e1 6f 01 81 18 f5 75 00
       -1.926488e-39 2.914111e-38 -2.3773827e-38 1.0832676e-38
000350 ff cd 96 00 10 31 56 83 8c 06 a3 80 c4 21 81 00
       1.3849222e-38 -6.294527e-37 -1.4971534e-38 1.1858892e-38
000360 fd 59 2f 81 7a 31 5c 00 48 ba 28 01 9c 3a aa 00
       -3.2206987e-38 8.466614e-39 3.0990377e-38 1.563306e-38
000370 5f 7b 29 81 34 f9 88 00 dd 3c a8 02 aa 1c 02 81
       -3.1128912e-38 1.2579025e-38 2.4720315e-37 -2.3897794e-38
000380 2e 97 3a 80 d0 34 1d 81 80 a0 c0 80 64 8b 1a 83
       -5.380692e-39 -2.8874237e-38 -1.7689992e-38 -4.5416545e-37
000390 2f f0 15 83 84 7a 22 01 a3 42 05 80 24 1f 17 01
       -4.406288e-37 2.9842601e-38 -4.83082e-40 2.7756662e-38
0003a0 24 9e 0a 81 f8 58 3c 83 32 8a 17 00 41 9c 83 00
       -2.5460057e-38 -5.5350366e-37 2.161792e-39 1.2086503e-38
0003b0 79 50 10 80 15 23 45 83 72 46 22 83 bb fc 5d 03
       -1.498236e-39 -5.793337e-37 -4.768839e-37 6.5236183e-37
0003c0 4e b8 64 80 88 4c 4e 83 bd 82 27 83 a9 26 3f 80
       -9.249666e-39 -6.0625813e-37 -4.922697e-37 -5.799505e-39
0003d0 61 11 16 00 52 5e 3b 80 3c 34 7a 00 40 24 a8 81
       2.026615e-39 -5.45213e-39 1.1222669e-38 -6.176547e-38
0003e0 a5 48 65 01 bd 13 26 80 89 64 ca 02 f4 1a 0c 03
       4.2112777e-38 -3.49683e-39 2.9738937e-37 4.1173243e-37
0003f0 cf 9d d8 82 a6 8d e1 82 d4 69 8e be 00 a5 d1 02
       -3.1828925e-37 -3.314208e-37 -0.27815115 3.0804495e-37

fc_hidden_layers.3.bias f4 [50]
000000 20 00 bd 82 13 f3 bb 3d be 8e 54 83 6b 19 3f 3d
       -2.7771126e-37 0.09177222 -6.246506e-37 0.0466551
000010 07 4a 05 80 cb 35 d8 3d ff ce 1b 83 ed 00 20 3c
       -4.85733e-40 0.10557135 -4.5788026e-37 0.009765846
000020 3d ac 35 bc ca 10 b5 82 f6 71 b8 82 93 82 b7 82
       -0.011088428 -2.6605196e-37 -2.710178e-37 -2.696438e-37
000030 39 a4 9d 3d ae 0f e1 3d 24 51 ad bd 74 16 8c 3c
       0.076973386 0.10989319 -0.08462742 0.01710055
000040 6c 59 fc 82 e0 2c 9b 82 d1 b1 04 be 96 5b ae 82
       -3.7079398e-37 -2.280096e-37 -0.12958457 -2.561957e-37
000050 c6 8b 14 3e 36 c3 f3 82 44 a9 a7 82 f2 49 bc 3d
       0.14506444 -3.5817686e-37 -2.4635598e-37 0.091937914
000060 25 0e 40 3d cd 49 be 82 05 32 51 be 36 89 a5 82
       0.04688849 -2.796035e-37 -0.20429237 -2.4323326e-37
000070 20 2b 2a 3d 40 ee ab 82 92 91 b6 82 92 76 5c bb
       0.041545033 -2.526294e-37 -2.682605e-37 -0.003364001
000080 79 77 76 bd c3 00 58 3e 42 51 b6 82 44 fa aa 82
       -0.06017253 0.2109404 -2.6789136e-37 -2.51229e-37
000090 3f 32 21 bd f3 9f c9 82 ac 32 b0 82 9d f2 0c 3d
       -0.03935456 -2.9626102e-37 -2.588996e-37 0.03441106
0000a0 5f 9a 85 bc ac 53 2b 3e 08 0d ba bd 01 b2 b1 3b
       -0.016308961 0.16731137 -0.09084517 0.005422831
0000b0 af b0 80 3e 6f 6e e5 3d 72 7a f6 82 80 96 35 bc
       0.251348 0.11202704 -3.6216731e-37 -0.011083245
0000c0 18 bf b5 bd 46 8e ed 3d
       -0.08874339 0.11599402

fc_hidden_layers.4.weight f4 [50, 50]
000000 b6 4a 49 01 eb 28 bd 82 ab 83 95 00 de 56 b1 02
       3.6971472e-38 -2.779454e-37 1.3730722e-38 2.6057672e-37
000010 86 04 8c 81 e8 43 c8 82 99 32 9b 00 62 9f ac 82
       -5.143437e-38 -2.9426335e-37 1.4252653e-38 -2.536461e-37
000020 6f 61 ac 82 fc 4d 21 00 fe 0d 70 01 f2 6b 16 00
       -2.5329053e-37 3.058547e-39 4.4091077e-38 2.059104e-39
000030 8d c7 ab 82 6e 4d b6 02 1b a9 b5 82 6a fe b0 82
       -2.5240728e-37 2.678694e-37 -2.6692621e-37 -2.6006902e-37
000040 42 d8 70 80 20 c7 6b 00 70 bc bd 82 b8 4b 6a 81
       -1.0363154e-38 9.89783e-39 -2.7879212e-37 -4.3033338e-38
000050 05 d6 a2 02 d5 1c a8 01 68 56 21 81 38 66 b1 82
       2.3926602e-37 6.1754825e-38 -2.9633023e-38 -2.6066483e-37
000060 b0 e2 23 01 de 7b a0 81 0f 4c b7 82 4a 7a 2d 01
       3.0101012e-38 -5.895246e-38 -2.6933089e-37 3.186282e-38
000070 52 b1 be 82 24 9f c7 00 7e a7 b6 81 8d 5c 6f 00
       -2.8019768e-37 1.8332353e-38 -6.709658e-38 1.0226941e-38
000080 c0 71 a9 82 ec 50 b6 82 f2 6f 14 81 5d 5b 8b 01
       -2.4897607e-37 -2.6788943e-37 -2.7263624e-38 5.1191636e-38
000090 23 56 27 03 48 25 aa 80 74 79 5c 00 a9 53 ba 82
       4.917577e-37 -1.5625408e-38 8.492435e-39 -2.7378262e-37
0000a0 48 75 c8 82 36 df c5 82 c9 e2 c5 02 3a e7 50 00
       -2.9454675e-37 -2.9074665e-37 2.9076717e-37 7.429788e-39
0000b0 84 dc a6 82 d2 05 bf 82 a0 05 9a 01 49 89 bc 02
       -2.4518078e-37 -2.8068268e-37 5.6578737e-38 2.7702915e-37
0000c0 f7 44 a3 82 df 99 b4 82 01 51 3d 83 a5 31 7e 3e
       -2.3990281e-37 -2.653694e-37 -5.5635096e-37 0.24823625
0000d0 15 9d 5f 03 ef 07 7a bd ae f7 0f 81 45 e7 28 be
       6.571413e-37 -0.061042722 -2.6442653e-38 -0.16494472
0000e0 df 7a 02 01 84 11 14 bf 85 69 3f 3b 79 8c d7 82
       2.3965385e-38 -0.57839227 0.0029207182 -3.1672038e-37
0000f0 92 31 b9 02 cf bf bf 82 44 45 5b bc 71 be 27 bf
       2.7211759e-37 -2.817502e-37 -0.013383213 -0.65524966
000100 f5 9e bf 3d 89 71 0a 3d f7 2e f3 82 ec b0 e7 81
       0.093564905 0.03379968 -3.5732597e-37 -8.510987e-38
000110 45 d9 1a be 54 e6 a8 82 a7 b0 0f bf cb f0 0c 83
       -0.15121944 -2.4817583e-37 -0.56128925 -4.141872e-37
000120 9f 43 bb 02 8a a0 41 bd 3d 91 09 3d 26 88 bf 82
       2.7515993e-37 -0.047272243 0.033585776 -2.8143073e-37
000130 6a b8 17 3f 52 a2 bc 82 08 5e 07 3e 23 62 d4 02
       0.5926577 -2.7717285e-37 0.13219464 3.1206928e-37
000140 78 6a c8 02 10 ab 04 3e 1a 18 bc be f5 c3 63 3e
       2.9448469e-37 0.1295588 -0.36737138 0.2224272
000150 90 8f d1 02 5a 45 ac 02 ef 88 1d 3d 6a c5 39 01
       3.079219e-37 2.5312934e-37 0.03846067 3.412077e-38
000160 a6 c6 b1 82 b3 8f 3b be 1f 00 39 3f 10 5e cb 3d
       -2.6121831e-37 -0.18316536 0.7226581 0.099300504
000170 4c 1c 28 3d 1a b1 a6 3d b9 fe de 3d 68 26 7c 3d
       0.04104261 0.08139248 0.10888428 0.061560065
000180 fa 65 06 83 74 73 ef bd 7e 3d 5d 3e 7f 95 bc 3c
       -3.9496124e-37 -0.11691943 0.21605489 0.023020504
000190 c1 79 d6 02 ae c9 52 be a1 79 5d 03 eb 9c cb 3e
       3.1514357e-37 -0.20584747 6.5085686e-37 0.39768156
0001a0 57 ab 01 80 f5 65 39 3e 11 8f 46 83 08 3a d7 3c
       -1.533e-40 0.181053 -5.8351203e-37 0.026272789
0001b0 e1 98 3e 3e 04 5d c4 02 80 32 b6 02 3a bc ba 82
       0.18613006 2.8853e-37 2.6771482e-37 -2.743828e-37
0001c0 4f 2b a4 3d 35 a5 bc bf b0 c2 6e 3c 36 35 da 3e
       0.08016073 -1.4737917 0.014572784 0.42618722
0001d0 26 fb c4 82 60 e8 a8 82 1f b4 c9 3d 8c 33 dc 02
       -2.8943764e-37 -2.4818758e-37 0.098488085 3.235568e-37
0001e0 22 4c 11 be 39 30 03 83 41 71 bd 82 be f0 14 3f
       -0.14189199 -3.8552797e-37 -2.7836059e-37 0.58179843
0001f0 e6 af b0 bc 10 dd af 02 a8 40 10 80 a6 0a cb 82
       -0.02156825 2.5840823e-37 -1.492562e-39 -2.983428e-37
000200 67 dd 4a 3e c9 6e b3 02 eb 43 bc 82 30 cc f0 3c
       0.19811021 2.6365274e-37 -2.76631e-37 0.02939424
000210 15 a6 1a be 41 d5 29 bf 27 95 ca 82 a3 0f b4 02
       -0.15102418 -0.66341025 -2.9766842e-37 2.6457598e-37
000220 90 3a b4 82 69 cd 1a 83 21 3b b6 82 f2 42 3c bc
       -2.6482236e-37 -4.549233e-37 -2.6776435e-37 -0.01149057
000230 2f a0 fa 80 e9 0f b1 3e 62 7f 9b 3e 2c 47 bf 02
       -2.3016337e-38 0.3458245 0.30370623 2.8105778e-37
000240 dd 01 6c 3e a6 86 a9 be 2a 82 ed 82 65 37 d3 be
       0.23047586 -0.3311054 -3.489873e-37 -0.412532
000250 63 da d4 be 41 54 f4 be 26 54 01 01 53 f0 b1 82
       -0.41572866 -0.4772053 2.3753932e-38 -2.6145752e-37
000260 61 a5 37 81 dd e6 c0 82 5a 5c ae 01 49 9d bc 82
       -3.3730445e-38 -2.8344373e-37 6.4050023e-38 -2.7714394e-37
000270 6d 26 98 01 c2 08 ae 82 30 33 b4 82 14 0f 26 00
       5.589112e-38 -2.5572029e-37 -2.6478003e-37 3.495158e-39
000280 8c 01 04 80 da 2e 8b 01 06 e1 a5 82 60 ea ba 82
       -3.67897e-40 5.1127765e-38 -2.4373728e-37 -2.7464768e-37
000290 f6 52 bd 82 e5 03 a9 82 d6 40 83 01 f8 2f c2 82
       -2.7818671e-37 -2.4834554e-37 4.8214835e-38 -2.853327e-37
0002a0 8c e7 a9 82 62 3f 8d 00 48 69 af 82 16 a3 ba 00
       -2.496522e-37 1.2971542e-38 -2.5774367e-37 1.7139906e-38
0002b0 9a 27 52 00 d5 04 ab 82 db 08 65 81 3c 10 52 01
       7.544717e-39 -2.5128965e-37 -4.206701e-38 3.8582556e-38
0002c0 31 2c 22 03 10 e9 6f 81 61 3a a7 82 80 c8 07 81
       4.765825e-37 -4.406458e-38 -2.4571952e-37 -2.4939436e-38
0002d0 28 97 a3 00 af 8e 64 00 4e f6 b6 82 11 52 ae 82
       1.502341e-38 9.234735e-39 -2.6883868e-37 -2.5614106e-37
0002e0 98 2c 9f 00 ae e0 0b 80 e4 59 98 81 6c c8 01 01
       1.4617841e-38 -1.09079e-39 -5.596497e-38 2.3837354e-38
0002f0 46 e6 6f 81 88 eb bc 82 80 98 51 00 f2 60 c5 82
       -4.406258e-38 -2.7759306e-37 7.493382e-39 -2.9002192e-37
000300 67 56 b2 82 6b d4 86 00 59 11 bd 82 f2 8f b6 82
       -2.6204342e-37 1.2382158e-38 -2.778101e-37 -2.6825117e-37
000310 b2 af 45 80 fc 28 bf 82 4e d6 b9 02 10 c9 ac 82
       -6.399677e-39 -2.8088452e-37 2.7306312e-37 -2.5388533e-37
000320 5c f2 80 80 b2 b2 b8 82 5e 9b 96 81 60 5f 32 83
       -1.1841886e-38 -2.7138936e-37 -5.532424e-38 -5.2418984e-37
000330 10 59 81 81 de d4 d7 82 08 52 8a 01 36 f6 b3 82
       -4.7514914e-38 -3.171359e-37 5.0810903e-38 -2.6443004e-37
000340 54 90 be 82 aa 3e eb 00 4d 1b 2b 00 36 04 e5 00
       -2.800083e-37 2.1603821e-38 3.95872e-39 2.1031839e-38
000350 e5 aa b8 82 0e 98 d3 82 85 90 b2 82 23 2d c6 82
       -2.7134459e-37 -3.1090939e-37 -2.62377e-37 -2.9119392e-37
000360 86 4b 44 00 ba 87 ca 82 4d ca b0 82 d9 7d 04 81
       6.271906e-39 -2.9759136e-37 -2.597699e-37 -2.4334862e-38
000370 fa 8c 44 01 74 52 a4 00 ea c6 35 00 99 34 b7 82
       3.610066e-38 1.50906e-38 4.938638e-39 -2.6919623e-37
000380 16 17 b0 01 a2 c8 8b 81 e6 f2 07 83 3d b3 28 81
       6.4685316e-38 -5.134843e-38 -3.995177e-37 -3.0985324e-38
000390 e0 17 b5 82 46 47 61 81 c8 e0 f3 80 7f 76 e6 82
       -2.6609263e-37 -4.137711e-38 -2.2396662e-38 -3.3863476e-37
0003a0 04 2b b5 82 87 b5 cb 82 16 ab 65 00 5d 13 1d 81
       -2.662025e-37 -2.993236e-37 9.336759e-39 -2.8850238e-38
0003b0 63 d0 83 01 53 1b b0 00 c2 3d 34 00 e8 f8 b6 82
       4.842082e-38 1.617285e-38 4.7976e-39 -2.6885362e-37
0003c0 e8 e1 05 81 04 6a e5 82 ee b8 ca 82 1c df d1 00
       -2.4590322e-38 -3.3709376e-37 -2.9787377e-37 1.9273655e-38
0003d0 ce a5 ba 82 87 d1 c7 82 06 5f f2 80 95 f1 c0 82
       -2.742541e-37 -2.9360685e-37 -2.2258278e-38 -2.8350526e-37
0003e0 8b 8a b8 82 96 87 ab 82 c4 b3 d1 82 39 ea c0 3d
       -2.711589e-37 -2.5204014e-37 -3.081297e-37 0.094196744
0003f0 4a bf 3c 83 74 db 77 3e a6 37 22 81 48 a9 4c bd
       -5.5467824e-37 0.24204808 -2.9794627e-38 -0.049966127

fc_hidden_layers.4.bias f4 [50]
000000 4a 2f bc 82 b8 27 96 3d 36 60 5e 3e 55 da b0 82
       -2.765126e-37 0.073317945 0.21716389 -2.5986192e-37
000010 60 7c c2 82 d1 bb f2 3b d7 58 0b 3d ad bf 63 bd
       -2.8577126e-37 0.0074076434 0.03402027 -0.05560272
000020 3a 61 0b 3d 11 59 df 82 b1 51 7e bc 40 a9 2e 3d
       0.03402827 -3.2818027e-37 -0.015522406 0.042641878
000030 56 cb 59 3d e9 0b 15 bd a8 37 f9 82 e3 e0 bb bd
       0.053172432 -0.03638831 -3.6619207e-37 -0.09173753
000040 a1 10 c5 be f6 47 3b 3d 35 f2 c4 3d d4 6e 8e 3c
       -0.3848925 0.045722924 0.0961651 0.017386831
000050 25 1d ab 82 f8 b2 ae 82 58 89 b6 82 78 25 ae 82
       -2.514292e-37 -2.5669725e-37 -2.6821328e-37 -2.5588508e-37
000060 88 c2 f5 3d 7a 30 cb 82 e6 76 02 3c 27 c1 48 bd
       0.119999945 -2.9855993e-37 0.007962918 -0.04901233
000070 66 8d ae 82 ae 39 b2 82 08 b0 60 bd 65 77 ba 82
       -2.564816e-37 -2.6187856e-37 -0.054855376 -2.7398773e-37
000080 7e 71 be 82 f0 5f 00 3c c5 be 3b bd 1d 26 d1 82
       -2.7983132e-37 0.007835373 -0.04583623 -3.0731666e-37
000090 de 70 0e 3d 7a c0 c6 82 17 37 ce bb eb 32 bd 82
       0.034775607 -2.9203961e-37 -0.0062931883 -2.780028e-37
0000a0 a0 9d f0 84 36 c6 89 3d c4 04 ea 3d 66 14 b1 82
       -5.6568485e-36 0.06727259 0.1142669 -2.601952e-37
0000b0 39 4e 2b be 26 6a aa bb 8f 7a c5 82 39 6c 0a 3d
       -0.16729058 -0.005200642 -2.9016894e-37 0.033794615
0000c0 06 89 43 3d b8 83 bf 82
       0.047738098 -2.814053e-37
