data/net_double_pendulum.pt (torch_old, 814821 bytes, 12 tensors)

fc_hidden_layers.0.weight f4 [200, 10]
00000000: cfb5 a53e 8316 00bf e5e1 11be e4d5 593e
00000010: 9a0b 35be 47ce 213e d168 02be b57e 813e
00000020: d264 a53d cf1f 9bbd 050f bc3b 61bd 473e
00000030: da3e 733e ea02 f3bd ca8a 7d3d ae74 07be
00000040: b0d9 773c 88ac 0d3e a74b 8d3e 35b2 ca3d
00000050: 8460 99be f71a 7e3d 4ddc 0abe 9545 44be
00000060: d4f2 8e3d 3e5c 11be f27b d93e 357d de3e
00000070: 7eff 3abe a313 8f3d fa83 e83c 5bf5 1e3f
00000080: 0f95 c33e 84a5 99be d8ac 05be b0d6 a2be
00000090: 20cc 793e e271 083e bb2f d63d 0e4f edbd
000000a0: c667 0c3f 1df7 eabe 16b6 213e e33a 5a3d
000000b0: 78f7 e3bb 6c4e ca3d 1e4a 31be a71a 7c3e
000000c0: be6c 34bd fe11 a8bd 18d0 fbbd 7091 a9be
000000d0: b092 413e f2ab 243d 6bbd 023f 834a 113e
000000e0: 374b 7ebd 1674 02bd 7f34 563e 22a6 a63d
000000f0: 5e6c 1abf 15ce e63e 4c0f e53d 1175 623e
00000100: 763f 5bbe c0cc abbd 497d ae3c 5309 393d
00000110: a0b9 85be 30c8 4fbe b30a 163f e167 8fbe
00000120: e622 b23c 4910 6dbd 367b 8e3e b3ad 00bb
00000130: bb3b 4f3e 4581 e33e e7a0 52be 0f49 933d
00000140: 7731 16bf 75bb c8be 566f 3fbd c9ad adbd
00000150: 542e 223e bfb3 02be ebde 5fbe 51ef 863e
00000160: 1898 e5bc 57f1 223e 801b 033f e207 2dbf
00000170: 62c5 033d daa7 8b3d 5e72 13be cdf4 08be
00000180: c52a 2c3b b598 703d 0e03 e0bd 80dc f7bd
00000190: af1c 073f 9947 ccbe c39a 713e e04e 6f3e
000001a0: d296 04be 31f4 96be cd0d 213e d748 e43d
000001b0: 1d2a 1e3e 3cc4 023e 79cb c23d 1e97 8a3e
000001c0: 78a8 923f 6433 68be 397c ae3e edfe 0c3e
000001d0: e8b9 043e 11cb 963e 919e 84be a247 4abe
000001e0: eb4f 06bf f936 a03e f83a 973e ca59 8dbe
000001f0: ca33 063e e943 36be 7c79 4dbe a48e c9bd
00000200: 396f 0f3e b10e ac3e ab70 b7be 5dcc 013e
00000210: a991 b43e 18ab 293e ed41 943e ebb4 3e3e
00000220: f2e9 483e 00cb 1c3e 0b43 1abe 29c0 a8be
00000230: 0d73 82be 95ee 37be 7610 7abe 978c e23d
00000240: 8a58 d83d 5eca 8ebd 930c 4e3e 6c3c ed3d
00000250: eb73 273e d95b 783e bdfb 1dbe 5abe 203f
00000260: f3f6 103e 73c0 2dbc c71e 03be ba2e babe
00000270: 52f6 8ebd 8542 023e 7960 433e af61 8dbd
00000280: 1606 bfbe 567f c63e 7181 86bb 349e ff3d
00000290: 3153 aebd 4734 04be 37b7 5ebc 0d1f 083e
000002a0: 42b8 6abe 4f94 2abe 2b87 a0be 5181 de3e
000002b0: a5ec 12bd e113 233d 7602 243f 1795 553e
000002c0: bfcb a93e 2059 473e 8d04 16be 9c2b 333e
000002d0: 79af a43a 96a0 913d 5c47 46be a358 563c
000002e0: 20c5 90bd 4659 573d 5e7c bdbe 9553 f33b
000002f0: e408 3bbd afe8 0bbe 41b9 863d 2736 933d
00000300: 9d4f 99bd 1dc6 8ebc dc91 983e 05c4 8abe
00000310: 30bc ce3d c543 743e 1dc8 bd3e e78a 90be
00000320: 308b 0a3f 3285 1dbf b9d2 903e cb29 1dbd
00000330: 59b4 7f3e 633f 30bc b2ea 0abd 8f21 ca3c
00000340: 77a9 af3d 0364 ef3d 132a 37bc 7def c83e
00000350: ae6c e4be 5610 613e 4f6c ec3e 11c8 793e
00000360: a4c9 a53e 5767 08be 757c 95bd d7f5 6f3e
00000370: f3e0 cc3b 1af2 4a3f 96ed 88be 1185 d1bd
00000380: 53b0 f53d 8988 9ebe 2672 e03c 9cdb 843e
00000390: e633 703e 839a a13e 4d16 d9bd c53c 05bf
000003a0: dd1c 043f 295d 193e b72c 0ebe 2c74 c83d
000003b0: e636 bebe ae97 de3e e5bf 1f3e ac9a 55be
000003c0: 03a4 ecbe 025d 8e3e b5fd 8c3c 3574 f3bd
000003d0: 3f24 0dbd 6f8e 11be cee4 cfbd d0b8 bebd
000003e0: 59a9 03be 58f9 363e 3b89 e53e 3ee7 85be
000003f0: 0b0d 013f 3035 a43e d5f6 853e 09ea 68be
0.3236527 -0.5003435 -0.14246328 0.21272999 -0.17680207 0.15801345 -0.12735297 0.25291982
0.080758706 -0.075744264 0.005739095 0.19505836 0.23754445 -0.1186579 0.061899938 -0.13228104
0.015127584 0.13835347 0.2759678 0.098972715 -0.29956448 0.062037434 -0.135606 -0.19167168
0.069799095 -0.14195344 0.42477375 0.434549 -0.18261525 0.06986167 0.028383244 0.6209313
0.3819966 -0.3000909 -0.13054216 -0.3180442 0.24394274 0.13324693 0.104583226 -0.11587344
0.54845846 -0.45891657 0.15792117 0.053278815 -0.006956991 0.09878239 -0.1731343 0.24619542
-0.044049017 -0.08206557 -0.1229555 -0.33118773 0.18903613 0.040203042 0.5107028 0.1418858
-0.06208345 -0.03184899 0.20918463 0.08137156 -0.60321605 0.45079103 0.11184558 0.2211497
-0.21410927 -0.08388662 0.021299975 0.045174908 -0.26118183 -0.20291209 0.58610076 -0.2800894
0.021745156 -0.05787686 0.27828377 -0.0019634783 0.20237629 0.44434562 -0.20569192 0.07191669
-0.5866923 -0.39205518 -0.046737038 -0.084804125 0.15837985 -0.1276388 -0.2186238 0.2635446
-0.028026626 0.15912376 0.51213837 -0.67590153 0.03217066 0.068191245 -0.14399096 -0.13374634
0.002627061 0.058739383 -0.10938083 -0.12102604 0.5277814 -0.39898375 0.23594193 0.23369932
-0.12948158 -0.29483178 0.15727921 0.111467056 0.15445752 0.1277017 0.095114656 0.27068418
1.1457663 -0.22675854 0.3407915 0.13769121 0.12961543 0.29451802 -0.25902227 -0.19753888
-0.52465695 0.3129194 0.29537177 -0.27607566 0.13105693 -0.17799343 -0.20065874 -0.0984166
0.14007272 0.3360496 -0.35828146 0.12675615 0.3526738 0.16569173 0.28956547 0.18623702
0.19620493 0.15311813 -0.15064637 -0.32959107 -0.25478402 -0.17962106 -0.24420342 0.11061972
0.105637625 -0.06972192 0.20121984 0.1158379 0.16352813 0.24253787 -0.15428062 0.62790453
0.14156704 -0.0106049655 -0.1280471 -0.36363775 -0.069805756 0.12720688 0.1907977 -0.06903397
-0.3730933 0.38769025 -0.004104786 0.12481347 -0.08511961 -0.12910567 -0.0135934865 0.13293095
-0.22921851 -0.16658138 -0.31353125 0.43458036 -0.035870213 0.03981388 0.64066255 0.20857655
0.33163258 0.19467592 -0.14650173 0.17497104 0.0012564502 0.071107075 -0.19363159 0.013082656
-0.070688486 0.052575372 -0.37008947 0.0074257352 -0.045662776 -0.1366298 0.06578303 0.07188063
-0.07485888 -0.017428452 0.29798782 -0.27102676 0.10094488 0.23853977 0.37066737 -0.28230974
0.54118633 -0.61531365 0.2828577 -0.038369935 0.24971141 -0.0107573 -0.03391523 0.024674205
0.08577245 0.116889976 -0.011179465 0.39245215 -0.44614166 0.21978888 0.46176383 0.24392726
0.32380402 -0.13320671 -0.07299129 0.23433624 0.006252402 0.7927567 -0.26743764 -0.102304585
0.11996522 -0.30963543 0.02739818 0.259488 0.23457298 0.31563196 -0.10599957 -0.5204585
0.5160654 0.14976944 -0.13884245 0.09787783 -0.3715126 0.43475097 0.15600546 -0.20859784
-0.4621888 0.27805334 0.01721082 -0.11887399 -0.034458395 -0.1421449 -0.10151063 -0.09312594
-0.1285757 0.17868555 0.4483126 -0.26152986 0.50410527 0.3207183 0.2616488 -0.22745527

fc_hidden_layers.0.bias f4 [200]
00000000: 64d4 f9bd 847f 62be eb7a eebd 72df 86bd
00000010: 0bee 17be abd9 e23d 9665 34be 7bda 2fbe
00000020: 2045 78be 3042 c13d 0698 513e b6c1 ebbe
00000030: ce54 1e3c 6598 cdbe 0699 c7bd 5e8b b8be
00000040: 6f06 21be d40d 94be a899 3fbe 1986 bfbe
00000050: 741f 263d 0776 1cbe 14f2 17be 4c6b 6b3e
00000060: 461d 35be 6ace 0dbe 4f87 c7be 74aa 1abe
00000070: 8975 86be a1d6 ee3c a07c 5ebe 5316 61bc
00000080: bd51 9cbd e2ea ddbe 8bfa 573d d42e 14be
00000090: 4b1a 05be da7b 533e 7d96 cc3d d3c4 9bbe
000000a0: a23c d0be e537 6fbe a0e3 a6be 17fb 06be
000000b0: 5916 a23d ea50 ebbe 7d99 85be 536f 0fbe
000000c0: e79c f5bd e03a a5bd 8344 0d3d 9f93 593e
000000d0: da6e dabd 4226 b9be e48e 4d3e 7c11 aebe
000000e0: 5421 06bc 5523 76bd aa5b 113e bea5 ddbd
000000f0: f061 d6be ed84 79be e5c4 90be f1f1 d53d
00000100: 43b4 56be 9435 f2bd 3135 3a3e d360 193e
00000110: 2274 92be ec6a 9fbe 97d2 0f3e bcf6 b2bd
00000120: faf0 f4be 0bb6 c6bd a44c 84be 9244 32bc
00000130: 88de bebd 3047 703e 1303 59be 2393 4dbd
00000140: be27 94be 1cd3 0b3e 5291 afbb 11a3 453e
00000150: dde8 88be ae7d f03c 4186 a1bc 591e ecbd
00000160: fe65 963d d9fb 13be 1c9b 79be cd69 b8be
00000170: 9ec7 a4bd 7d9d 84bd 65d3 46be cd97 39be
00000180: 6300 b1bc 85a5 bfbd b0f7 34be 6450 8cbe
00000190: 0a81 83be 17d4 a1bd b709 283d b22f 633d
000001a0: 0981 45be b0c0 a6be 1b8e 46bd 087e 04be
000001b0: 840d b33d 44d7 9ebb 02a3 93be 1fd7 e3be
000001c0: dd23 413e 6602 89be 9048 a3bd 7872 b1be
000001d0: 828d f93c 70f7 03be 1fe3 ea3d bbe3 e6be
000001e0: eb42 c13c 5f65 7ebc 9ec9 483e 0686 3dbc
000001f0: 52da 2fbe 8ac4 84be e9ea 2d3c 0e5b 92be
00000200: 701c 7ebe d1b0 05bf 861c ebbe 7794 74be
00000210: 6f0b 50be 43a5 74be ebd9 c8bc dd69 e23d
00000220: 8bec 42be fa12 ccbe d15d 5d3e 7998 d8be
00000230: ad0e 41be 96c6 33bd bb60 883c 8199 abbe
00000240: 1783 b5be f942 81bd 8fbb acbd 2686 f93d
00000250: 589a 953d 3015 aabc 20e1 32be d45e 273d
00000260: a19e d0be f69a dfbd db62 26be fecf ec3d
00000270: 5219 a33d 8556 11be 87af 9dbd 1edf d1be
00000280: 86a8 34be 57de 95bd f5de 20be d68a 82be
00000290: b5dd b3bd 2ca5 253e 395c ccbd 8eeb 7b3e
000002a0: 96b7 cebe d779 b0be c99f d6bd ab38 343c
000002b0: 2170 b6be 0481 c0be 70ed 7d3d 7b7d dcbd
000002c0: 9b7c 18bd cbc8 ab3c 650f 12be d4d6 2a3e
000002d0: ce09 a0be e362 8dbe 4693 7abd f132 183e
000002e0: f042 80be b5f6 93be 8ab8 8dbe eebb b9be
000002f0: 9847 3bbe 1fcb 8bbe 4d08 ffbd 99d9 85be
00000300: d53a bfbe 881d 92be 43d8 b9be 5188 bcbe
00000310: 7715 f13d 3326 323e 1153 143e d041 a1be
-0.121987134 -0.22118956 -0.116445385 -0.065855876 -0.148369 0.11076673 -0.17616877 -0.17173187
-0.24245119 0.094364524 0.20468149 -0.46046227 0.009663774 -0.4015533 -0.09745984 -0.3604383
-0.1572511 -0.289168 -0.18710959 -0.37406996 0.04055734 -0.15279399 -0.14838439 0.2299015
-0.17686948 -0.13848272 -0.3897042 -0.15104085 -0.26261547 0.029155077 -0.21727228 -0.013738233
-0.07632778 -0.43343264 0.05272917 -0.14470989 -0.12998311 0.20652714 0.09989641 -0.30423602
-0.4067126 -0.23361166 -0.3259554 -0.1318172 0.07914419 -0.4596017 -0.26093665 -0.1400731
-0.11992817 -0.0806787 0.034489166 0.21247719 -0.106656745 -0.36162 0.2007404 -0.33997715
-0.008186657 -0.06009229 0.14195123 -0.108226284 -0.41871595 -0.24367113 -0.2827522 0.10446537
-0.20967202 -0.118266255 0.18184353 0.14978342 -0.28604227 -0.31136262 0.14045177 -0.08738467
-0.478401 -0.09702691 -0.25839722 -0.010880606 -0.09319788 0.23464656 -0.21192579 -0.05018915
-0.2893657 0.1365475 -0.0053578997 0.19300486 -0.2674016 0.029356804 -0.019717338 -0.11529226
0.07343672 -0.14451541 -0.24375576 -0.3601822 -0.080458865 -0.06475351 -0.19416578 -0.18124314
-0.02160663 -0.09357742 -0.1767261 -0.27405083 -0.25684386 -0.07901781 0.04102489 0.055465408
-0.19287504 -0.32568884 -0.048475366 -0.12938702 0.08742812 -0.004847439 -0.28835303 -0.44500062
0.18861337 -0.26759642 -0.079728246 -0.34657645 0.030462984 -0.12887359 0.11469101 -0.4509562
0.02359148 -0.015527098 0.19608161 -0.011567598 -0.17173126 -0.25931197 0.010615089 -0.28585094
-0.24815536 -0.52222925 -0.459202 -0.2388476 -0.20316862 -0.23891167 -0.024517974 0.11055348
-0.19035546 -0.39858228 0.2161782 -0.42303827 -0.18853255 -0.04389056 0.016647687 -0.33515552
-0.35451576 -0.06311602 -0.084342115 0.1218379 0.07304829 -0.020762056 -0.17468691 0.04086192
-0.40746024 -0.10918228 -0.16248648 0.11563109 0.07963814 -0.14193161 -0.07699495 -0.40990537
-0.17642412 -0.073177986 -0.15710051 -0.25496548 -0.08782522 0.1617629 -0.099785276 0.24601576
-0.4037444 -0.34467956 -0.10479695 0.010999839 -0.35632423 -0.3759843 0.061994016 -0.10766121
-0.037228208 0.020969769 -0.14263685 0.16683513 -0.3125748 -0.27614507 -0.061175607 0.14863183
-0.2505107 -0.2889916 -0.27679855 -0.3627619 -0.1828903 -0.27303407 -0.12452755 -0.26142576
-0.37349573 -0.28538156 -0.36297807 -0.3682275 0.11771672 0.17397384 0.14484812 -0.31495523

fc_hidden_layers.1.weight f4 [200, 200]
00000000: 7932 c2ba 69a2 17ba 524b 5db9 babf 6cbc
00000010: f07d 9bb8 637c 1bba ffa9 4fba a722 27b9
00000020: 8d63 f838 9d10 e0ba 96a8 52bb 3a95 35b9
00000030: 0441 b8b9 ba56 8bb9 c7d4 a73b 8747 b2bb
00000040: 64a8 30af c90f 9eb9 cce8 43bc 3639 a63d
00000050: 307f e9b8 517a ca9b c4af 33ba a728 27bb
00000060: 9090 14b8 0cb8 36b9 96b1 ca3c 069d bbb9
00000070: 1ad5 05ba d865 0fba 6761 99b9 f0c8 f8b8
00000080: 95f4 abb8 6b5b d2b8 4ee8 c2b9 4aa4 08ba
00000090: 75fe b73b 58bd 46bb 9e36 36b9 615a 23b9
000000a0: 0cd9 6f3a 5e05 c6b9 e7d5 8f39 b86e 30b8
000000b0: b2d9 6eba 32fc 2abd c4ca 0e3d ea0f fdbb
000000c0: 2e87 64b9 a5a1 dcb8 8ba0 bab9 c675 89b9
000000d0: 8e3b e3b9 f547 08a6 ae75 87bb fa2e b6b9
000000e0: efe9 5cb9 1e03 bfb9 daf3 8bb9 ab6f e1b8
000000f0: 43bb 38b9 bb5e 0fb9 88f0 06b9 ecd0 89b9
00000100: 6c8b 24b9 e71b a2b9 f168 aab9 d3f5 13bc
00000110: 217f 1cba bf38 82b8 5868 35ba 3120 26bb
00000120: 14b2 b239 ee85 28b9 e2d6 e3ba 306d b2b9
00000130: 14f8 fcb9 0b54 9fb9 79f5 69bb 515b 84b9
00000140: cb6a a3b9 3f95 e0b8 eee2 53b9 5bb6 75bc
00000150: 9a81 1fb9 2193 6ebb 2847 ba39 c298 bdb9
00000160: 7c96 2bb9 fb33 30b9 82cb 22b9 db03 df38
00000170: 2935 b8b9 44c6 a538 18b3 aab9 71fa 1bb9
00000180: 7a21 62b8 6ac8 1eb9 76c7 45ab 55c9 b836
00000190: 1832 a835 af10 11ba 15e5 05bb 6f22 02bb
000001a0: 5263 53bd b69f 9bb8 df45 f684 42ed 9db9
000001b0: 687a 4eb9 931d 43bc ce57 7fb8 0bfa 57b8
000001c0: 7b4c 17ba 6bc5 be82 f32c 4fbb 80fd 1d35
000001d0: b36f c8ba 227a 35ba 2f0e 20ba 270f 37b9
000001e0: 6dd8 2cba e7bb 18ba a192 a3b9 4ab5 a7b9
000001f0: 42b0 c0b9 66f2 16b9 ad41 49b9 fa10 57bb
00000200: 69d2 01b9 1486 ca38 df5c 03b9 b852 363c
00000210: 6bfa 0039 98a2 c582 b1dd e1b8 26e5 88b9
00000220: 1477 1dba 8e13 b602 661a 4fba 0d78 1e3a
00000230: a374 aeb8 3256 1bbb e4cd 17b9 f4c3 32ba
00000240: 326c 8339 4d1a 15ba 29a4 c838 5fd8 aab8
00000250: 6024 2dba 0e65 00b9 500c 05ba 1a74 bfb9
00000260: ba19 05b9 8455 84b8 9394 9fb3 464f 7dbc
00000270: ce9b 2f3c a1c9 d4b8 4d4f a638 4e21 bb3c
00000280: fe06 37b9 89ea 6c3b 7da6 17b9 77a4 31b9
00000290: 5963 aeb7 6050 bbb9 0579 bebb 9556 04ba
000002a0: be8b 40ba 8425 05b4 c65d 1cb7 b778 26ba
000002b0: b990 ad3c a9a1 4bbb 9557 14ba 5848 42b9
000002c0: 7728 d2ba 98b5 21b9 6202 1eba 47b0 27b9
000002d0: bb3d 4fb8 8d49 63bb caac 37bb cddf dcba
000002e0: 726a 3db9 2a7f ecbb edd2 20ba c3d2 5538
000002f0: d2f7 3b39 3ac0 a3b8 37a4 aeb9 9b71 5bbb
00000300: 7387 eabb 71cf 7cb9 34b8 f539 2854 42b9
00000310: f5ce f6bb 718f 86b9 c7df 79bb 7d86 aab8
00000320: 8054 a782 5440 cd82 a43d ba82 2f50 a082
00000330: 647b ba82 6538 b482 6ce7 a982 1b00 bd82
00000340: ee6e ad82 fe51 bb82 fa62 b482 6e28 b182
00000350: 7cc8 a482 1921 ac82 da7f be82 e45f b182
00000360: 2d4b ad82 12c5 ac82 9597 b682 faa0 c382
00000370: f996 ac82 54e5 af82 8c9a dc02 d2ca be82
00000380: 67f9 9f82 b86c b682 5cd9 c782 9f3f a782
00000390: 1926 bc82 ea0d a882 3bb9 b682 2c2a c302
000003a0: ff39 c182 356a bf02 2237 ae82 0823 d182
000003b0: 6875 a982 dc57 b182 072b b082 e828 ac82
000003c0: 15d8 ae82 2e04 9d82 f9ea b282 03c2 af82
000003d0: 5710 a482 2c63 ca82 60e0 a382 f594 ba82
000003e0: 1f94 bc82 e424 b582 d032 a582 f71f b582
000003f0: 625d ab82 f86e b582 8d05 c082 125f ab82
-0.0014816067 -0.0005784394 -0.00021104261 -0.014450008 -7.414434e-05 -0.0005931316 -0.0007921755 -0.0001593927
0.00011844104 -0.0017094795 -0.0032143942 -0.00017317096 -0.00035143655 -0.00026576762 0.0051218006 -0.0054406556
-1.6066931e-10 -0.0003014787 -0.011957359 0.08116381 -0.00011133996 -3.3497142e-22 -0.0006854499 -0.0025506408
-3.5420584e-05 -0.00017425435 0.024742883 -0.0003578441 -0.0005105302 -0.0005470193 -0.00029255004 -0.00011862989
-8.199472e-05 -0.00010030608 -0.00037175644 -0.0005212469 0.0056150504 -0.003032526 -0.00017377219 -0.0001557856
0.0009149469 -0.00037769502 0.00027434455 -4.2064785e-05 -0.00091114186 -0.04174442 0.03486134 -0.0077228444
-0.00021794133 -0.00010520526 -0.00035596298 -0.00026218424 -0.00043341186 -4.7282e-16 -0.0041339016 -0.00034748745
-0.00021067982 -0.0003643268 -0.0002669383 -0.00010749636 -0.00017617368 -0.00013672833 -0.0001286884 -0.00026286335
-0.00015692197 -0.00030919837 -0.00032503114 -0.009030777 -0.00059698714 -6.209453e-05 -0.00069201505 -0.0025348777
0.00034083484 -0.00016071621 -0.0017382766 -0.00034032157 -0.00048250018 -0.0003038946 -0.0035699292 -0.00025245038
-0.0003116935 -0.000107089516 -0.00020207066 -0.01499709 -0.00015211702 -0.0036403614 0.000355297 -0.00036162703
-0.0001636389 -0.00016804032 -0.00015525336 0.00010634187 -0.00035134822 7.904743e-05 -0.00032558362 -0.00014875249
-5.3913776e-05 -0.00015142714 -7.0265267e-13 5.5070655e-06 1.2531555e-06 -0.0005533797 -0.0020430733 -0.001985695
-0.05160839 -7.4207244e-05 -5.789849e-36 -0.00030122144 -0.00019691291 -0.0119089065 -6.0878512e-05 -5.1492865e-05
-0.00057715893 -2.8031303e-37 -0.0031612485 5.885595e-07 -0.0015292078 -0.0006922801 -0.0006105629 -0.00017457885
-0.0006593529 -0.00058263395 -0.0003119903 -0.00031987793 -0.00036752416 -0.00014395415 -0.0001919332 -0.0032816515
-0.00012380783 9.6570846e-05 -0.0001252773 0.01112812 0.00012300319 -2.9039873e-37 -0.00010770129 -0.0002611067
-0.0006006819 2.675372e-37 -0.0007900357 0.00060451106 -8.318692e-05 -0.00237025 -0.00014477182 -0.00068193604
0.0002506688 -0.0005687818 9.5673204e-05 -8.146534e-05 -0.00066048466 -0.00012244677 -0.0005075382 -0.0003651686
-0.00012693452 -6.310179e-05 -7.43104e-08 -0.015460795 0.010718299 -0.00010146504 7.930268e-05 0.02284303
-0.00017454845 0.0036150536 -0.00014462504 -0.00016941303 -2.0788679e-05 -0.00035727303 -0.0058127665 -0.0005048302
-0.0007345042 -1.2400238e-07 -9.320158e-06 -0.00063503854 0.021187173 -0.0031071699 -0.00056588027 -0.00018528232
-0.0016033788 -0.00015421805 -0.0006027577 -0.0001599203 -4.9410137e-05 -0.003468129 -0.0028026574 -0.0016851366
-0.00018064099 -0.0072173076 -0.0006134946 5.0979444e-05 0.0001792603 -7.808251e-05 -0.00033310216 -0.0033484462
-0.00715726 -0.0002410987 0.00046867284 -0.00018532632 -0.0075319954 -0.00025665344 -0.0038127766 -8.131282e-05
-2.4586945e-37 -3.0158965e-37 -2.7365624e-37 -2.355591e-37 -2.7401066e-37 -2.6480992e-37 -2.4965148e-37 -2.7771115e-37
-2.5483736e-37 -2.7524242e-37 -2.6505433e-37 -2.6031018e-37 -2.4212707e-37 -2.5292126e-37 -2.7991374e-37 -2.606285e-37
-2.5463214e-37 -2.5386241e-37 -2.68295e-37 -2.874507e-37 -2.5359783e-37 -2.5845567e-37 3.24148e-37 -2.8034404e-37
-2.35061e-37 -2.6804898e-37 -2.936518e-37 -2.4574961e-37 -2.7645984e-37 -2.4693368e-37 -2.6848814e-37 2.867688e-37
-2.839209e-37 2.8125887e-37 -2.5598647e-37 -3.0729897e-37 -2.4899706e-37 -2.6058241e-37 -2.5885572e-37 -2.5296608e-37
-2.5691027e-37 -2.3071476e-37 -2.6289617e-37 -2.5825296e-37 -2.4107013e-37 -2.9738154e-37 -2.4079482e-37 -2.741574e-37
-2.7709135e-37 -2.6616734e-37 -2.4273736e-37 -2.6613907e-37 -2.517979e-37 -2.6659253e-37 -2.821505e-37 -2.518076e-37

fc_hidden_layers.1.bias f4 [200]
00000000: 60cb 4dbd d806 0985 28c6 50bd b745 25bc
00000010: 75e5 91bd 1066 e3bd d7ab ffba 3eb2 7d3d
00000020: 5092 b382 f788 cbb8 d290 f484 9361 bbbd
00000030: c0a6 e0bc 741c 97bd 5ced b0bd 6d7e 51bc
00000040: 9029 c43c bcf0 2a3c 15a8 f084 060b c085
00000050: 4268 babd 3ce5 6bab ecc2 4f3b ac62 0abd
00000060: 1370 9bbc deb0 253d 1759 f484 4cd0 f184
00000070: 1346 f184 debd bb82 021a 573d a10a b1bc
00000080: 5b68 953c bede 3dbd 4574 d282 93dc 433d
00000090: af92 8b3d 4b4c b8b4 7dd0 5ebd 7ccf f384
000000a0: d1b8 b582 976e b3bd 08ff 1fbc 8381 8dbc
000000b0: f67e b182 c4ad f284 a30d 72bd 21a9 b73d
000000c0: 7d88 1ebe d43c 14aa f64e b682 2392 b2a1
000000d0: b9b1 01be 5516 ba3d 1631 063c d42f e3bd
000000e0: 2074 f384 b2d9 833d e0d9 babd 86f2 f084
000000f0: 06f4 f484 a16e 133c 0e81 babd f3cf edbd
00000100: a2e3 b982 972a 6e3c d69d f384 1a9e 9cbc
00000110: b4ac 17be 9dcb a93d ec03 aebd 7bf9 f884
00000120: de35 f684 f42f b282 5669 06be 0e14 e5bc
00000130: cc2c 20be 6b37 c63b 8a2f c3bd b025 00bb
00000140: 8275 f084 ec91 153e 6d12 2dbd 89ef b5a4
00000150: 254f c182 6829 cbbd de43 823d 7c2b 113d
00000160: d8f0 f784 fc85 f484 8240 10be 4040 a23d
00000170: 6172 cabc 3a4b 0a3e edec a1bd 360d a43d
00000180: 0795 483c 921d b63d 5a93 f684 119b 5abd
00000190: fbd8 5bbd 5d9c c7bd c300 f284 dccc fe84
000001a0: b6b9 9a3c 640d 5ebe d3cd 243d f8da aa82
000001b0: 738f b3bd 3158 c6bd bcc0 a7bb 2a74 30b5
000001c0: a426 c1a3 ee22 27be cfd1 033e 349e bfbd
000001d0: 9615 013e 692b 83bd 380f c23d 8071 f584
000001e0: ec6f f0bd 8bdb 2c8d c759 e83c 38dc ae3c
000001f0: 3b84 2b3e 21a1 7abd 1e8d f584 0391 b782
00000200: caf7 6dbd 0929 f284 ef0a 8f3c 96a0 cc82
00000210: 38fa a9bd 0af0 af82 39f1 9b3c d7e5 f084
00000220: 19e2 ce3c 8a6e 0bbd 3480 c83c 5a79 393c
00000230: 98d0 a782 5a18 7aac 36b3 913d 37c1 f284
00000240: 7f86 203e a813 f584 accd f7bb a7ab 723d
00000250: 0623 1eba 7136 2ab9 97b0 b882 26ad f384
00000260: 8d2d b782 6e41 b082 5db7 d9bc 452e af82
00000270: cbc8 863d 02a7 673d 915b f484 9913 b382
00000280: 134e 6a3d 0f8a c83d 932b 16bd b00b a982
00000290: 46ff 08b0 8290 ad3d 5ed7 0bbe 5b8c f484
000002a0: d436 813c 045f f43d ca50 a73d 98b1 d1bd
000002b0: 63be ae82 4a2a 8e3c bb5b f184 a736 f9bd
000002c0: 1ed2 8ab8 7a2e b5a8 bb79 31be 947c 003d
000002d0: 3942 ec3c e53a 63bc d24e c9bd c9ac 33be
000002e0: 59b8 6bbc 6b52 25b5 872d 13bb 88c0 37b3
000002f0: 6357 2c85 243d 2dbd 3c93 c73c 47b9 03be
00000300: 5bfa d9a2 8c3e 8cbd d6b2 ebbc e5e4 f484
00000310: bbf1 88bd 2971 ddbd f501 3ebd 787a 6d3d
-0.05024278 -6.442966e-36 -0.050970227 -0.010087422 -0.071238436 -0.11103451 -0.0019506168 0.061937563
-2.6385665e-37 -9.705306e-05 -5.749712e-36 -0.0914947 -0.027423263 -0.07378474 -0.08639023 -0.01278649
0.0239456 0.010433372 -5.6578088e-36 -1.8059643e-35 -0.09101917 -8.38069e-13 0.0031701876 -0.033785507
-0.01897434 0.040451877 -5.744594e-36 -5.6850118e-36 -5.672318e-36 -2.7586159e-37 0.052515037 -0.021611514
0.018238237 -0.046355 -3.0923462e-37 0.047817778 0.06815087 -3.432818e-07 -0.05439805 -5.731957e-36
-2.670164e-37 -0.08761328 -0.009765394 -0.01727367 -2.6080685e-37 -5.7053505e-36 -0.059095036 0.08967806
-0.15481754 -1.3166145e-13 -2.6787818e-37 -1.2100431e-18 -0.12665452 0.09086291 0.008190414 -0.11093107
-5.723567e-36 0.064380065 -0.091235876 -5.664645e-36 -5.7588224e-36 0.008998544 -0.091066465 -0.11611929
-2.7313962e-37 0.014536521 -5.7273975e-36 -0.019118357 -0.14811975 0.08290789 -0.08496842 -5.853363e-36
-5.788379e-36 -2.6182273e-37 -0.1312612 -0.027963664 -0.15642089 0.006049087 -0.09530552 -0.0019553714
-5.6531643e-36 0.14606446 -0.0422539 -7.8902026e-17 -2.8404228e-37 -0.09920007 0.06360601 0.03544186
-5.82906e-36 -5.748717e-36 -0.14087108 0.07922411 -0.024712743 0.13505259 -0.07906518 0.08010332
0.012242562 0.08892359 -5.7969643e-36 -0.05337054 -0.053673726 -0.09746621 -5.6894626e-36 -5.9903247e-36
0.018887382 -0.21684796 0.04023535 -2.5104937e-37 -0.08767595 -0.0968479 -0.0051194113 -6.573415e-07
-2.0941467e-17 -0.16321918 0.12873004 -0.09356347 0.1260589 -0.06404764 0.09475559 -5.7703456e-36
-0.117400974 -5.3265857e-31 0.028363122 0.021345243 0.1674966 -0.06118882 -5.772882e-36 -2.6972666e-37
-0.05809764 -5.693161e-36 0.017461268 -3.0067278e-37 -0.082996786 -2.5851715e-37 0.019035922 -5.6634803e-36
0.025254296 -0.034040965 0.024475195 0.011320436 -2.4658172e-37 -3.5540655e-12 0.0711426 -5.7071366e-36
0.15676306 -5.7617275e-36 -0.00756236 0.05924573 -0.00060324406 -0.00016232744 -2.7137728e-37 -5.7288037e-36
-2.6915578e-37 -2.589843e-37 -0.026576692 -2.5740496e-37 0.06581267 0.056555755 -5.7448215e-36 -2.6312935e-37
0.057203364 0.097919576 -0.03666265 -2.4839026e-37 -4.9839277e-10 0.08474828 -0.13656375 -5.749302e-36
0.015773214 0.11932185 0.08169706 -0.102389514 -2.5676279e-37 0.01735415 -5.674307e-36 -0.12168627
-6.61949e-05 -2.0115193e-14 -0.17331593 0.031368807 0.028840171 -0.013869022 -0.09829487 -0.17546381
-0.014387214 -6.1587224e-07 -0.0022457556 -4.2783114e-08 -8.1034515e-36 -0.042294636 0.024362199 -0.12863646
-5.908304e-18 -0.06847867 -0.028771799 -5.757433e-36 -0.066867314 -0.10812599 -0.046388585 0.057978123

fc_hidden_layers.2.weight f4 [200, 200]
00000000: 58e3 bc82 068b 7781 9e44 1203 e88c f504
00000010: b44a f204 4cf3 f184 5c79 5a86 d20f f384
00000020: 1b9e 5901 1b8e 5903 6226 5a81 18e4 a182
00000030: 3d89 e882 efd6 c282 4339 b082 3062 9082
00000040: 2613 4b03 6db0 f084 041b bb80 fffc a702
00000050: e41c f384 80d0 ab80 7987 aa89 8606 a782
00000060: 5dd1 ae02 1a09 f604 587a eb82 5ff7 2400
00000070: 66e6 4700 f93d ce80 570c f384 1a78 f384
00000080: 14ed f084 b581 3503 aca7 3701 1a5e f484
00000090: 8294 af82 f3a1 4e00 4b56 f184 010b 1481
000000a0: 5a9e 3000 5b9b f184 0754 f082 7509 2400
000000b0: 4c0a 7180 0a95 8680 220c f504 7a86 f304
000000c0: 4459 f404 1bff 6201 1926 0203 a289 d502
000000d0: 6e2b f484 fe3f f084 869e f084 15b4 f204
000000e0: dcc2 b402 8080 f204 0fcd f304 40c8 aa82
000000f0: 2b58 fd82 6e69 f084 ce6a f384 1cf0 f584
00000100: 331a 3003 f8dc f384 028e ee02 cecc f384
00000110: 32c3 f284 e75f f084 c207 f284 60f5 0d83
00000120: ed4d b500 a8e5 4480 2afe f184 50c2 8a80
00000130: dc05 f284 b4ad f584 501e f384 203a de82
00000140: d05f 1d83 b63e f284 e59b f384 a4e9 3100
00000150: 386a 3d00 897a 0285 8bd4 f284 ba82 f504
00000160: a51a 5c80 6473 6980 22d9 f004 a968 f384
00000170: e8ca 9a82 7cae b502 d5c2 f384 9683 b400
00000180: 83cb f384 d2ba f384 417b 4d81 0281 f284
00000190: 8c3c f384 b27a ef82 70dd e102 0e2e d682
000001a0: 60c7 f184 d28a f284 f143 f484 fd1a b882
000001b0: 576f f204 9464 f284 94d1 f284 f66a e482
000001c0: af53 2703 7f70 f084 b0b8 f484 0279 f484
000001d0: 2207 f584 a26e f304 0e41 f204 ce18 3c00
000001e0: 233f f284 42d1 da02 09cd f284 663e f304
000001f0: c7ac f484 1cde f484 96f5 f802 08fa 7181
00000200: c5e6 f284 2468 3c00 2352 f604 eb34 0403
00000210: 1930 f184 c3e0 0a01 43c6 f084 6119 9800
00000220: 1156 f484 58df f284 65e0 f504 6e68 f504
00000230: 4e97 5080 a803 0f03 1803 f304 6b65 6300
00000240: bc43 f284 05e0 e202 dc06 f504 383b 3a83
00000250: 2137 1703 44a7 8c80 d436 f982 c7ec 7800
00000260: ccaa 5f03 c1f6 4903 363b f284 4bdd 0683
00000270: 78c1 f484 94da f384 bbeb d082 88a3 0383
00000280: 062d f584 205f f484 740b f584 050c d682
00000290: d3dc 8600 367a f584 501e f204 0c3c ca82
000002a0: d9e1 f004 8cf8 f184 0431 f584 7bdb f304
000002b0: bc4a a901 09b4 6880 f487 0c83 0638 1187
000002c0: 5f03 6480 77c2 3503 a931 f104 1821 a502
000002d0: fc7c f584 dbf8 f084 4af4 f584 0b99 f084
000002e0: 5532 f604 9c7a 0300 763e f282 26b8 2103
000002f0: ab78 7c00 7b6e f184 287a f384 1495 f584
00000300: 85c1 0983 dad9 f404 644b f384 d678 ab02
00000310: 8617 f584 815b f284 2d99 fc04 ef05 f184
00000320: 7b20 5939 e137 c202 0906 be02 4b59 f084
00000330: c114 0cbd e4f5 e33d 045b 1ebd 21cb 483b
00000340: 6ea1 ae02 8199 f084 5a18 a602 8365 f104
00000350: dd94 c882 7bf5 9e82 a4ac f284 3c54 f684
00000360: 9af9 f404 2493 f384 22af cb02 a0f7 aa02
00000370: 44a7 4cbb 2227 f684 cf97 78ba 75e3 b282
00000380: 4676 ca02 1ee1 f4bd b701 c082 39c9 3a03
00000390: e4fe 6400 6eb3 c502 d614 df3d 46d7 f304
000003a0: a95a f404 d02c ba82 ccf2 e680 3bbb 56bc
000003b0: 8898 f584 f91c ba02 51bd 3337 44ef bb02
000003c0: c1d8 ea80 2411 f684 7b79 a382 5fa1 f804
000003d0: 0797 ed02 9289 b282 34e4 12bd 3540 f63a
000003e0: 085c ae02 2baa f284 ea9b c682 3071 b082
000003f0: dbfd a382 2615 223c 60cb 05bd 88d7 ab82
-2.7754606e-37 -4.546648e-38 4.2984312e-37 5.7728625e-36 5.696253e-36 -5.688226e-36 -4.1090404e-35 -5.7143554e-36
3.997004e-38 6.3933698e-37 -4.0067815e-38 -2.3787743e-37 -3.4168107e-37 -2.8629104e-37 -2.5893742e-37 -2.1215255e-37
5.967832e-37 -5.658575e-36 -1.7182929e-38 2.4683657e-37 -5.7155557e-36 -1.5778666e-38 -4.105341e-33 -2.4542189e-37
2.568717e-37 5.784268e-36 -3.4600368e-37 3.394818e-39 6.602972e-39 -1.8940344e-38 -5.7140358e-36 -5.723932e-36
-5.664145e-36 5.3340016e-37 3.373209e-38 -5.7450543e-36 -2.5799178e-37 7.221265e-39 -5.6738075e-36 -2.7191202e-38
4.46491e-39 -5.68015e-36 -3.531306e-37 3.30947e-39 -1.0381105e-38 -1.2359422e-38 5.7610365e-36 5.7252523e-36
5.7446102e-36 4.1692673e-38 3.82473e-37 3.1376534e-37 -5.7404008e-36 -5.6482496e-36 -5.656931e-36 5.7059306e-36
2.6560467e-37 5.7011935e-36 5.7317342e-36 -2.5094193e-37 -3.7225615e-37 -5.652055e-36 -5.722711e-36 -5.781973e-36
5.1751827e-37 -5.7331953e-36 3.5052465e-37 -5.731711e-36 -5.7073185e-36 -5.65118e-36 -5.690105e-36 -4.1717853e-37
1.665018e-38 -6.327199e-39 -5.689224e-36 -1.2743005e-38 -5.6899308e-36 -5.7758744e-36 -5.7156863e-36 -3.265333e-37
-4.624814e-37 -5.6951517e-36 -5.7272192e-36 4.583754e-39 5.64007e-39 -6.135077e-36 -5.7089116e-36 5.7719277e-36
-8.458424e-39 -9.684121e-39 5.6623134e-36 -5.722514e-36 -2.2744729e-37 2.6695709e-37 -5.730795e-36 1.6577593e-38
-5.731592e-36 -5.7300593e-36 -3.7740984e-38 -5.70124e-36 -5.718463e-36 -3.5188317e-37 3.3187878e-37 -3.1470908e-37
-5.6841925e-36 -5.7021413e-36 -5.742652e-36 -2.705186e-37 5.6996176e-36 -5.6986293e-36 -5.7086394e-36 -3.3562982e-37
4.9172953e-37 -5.652704e-36 -5.7533733e-36 -5.7475252e-36 -5.7605774e-36 5.7230626e-36 5.695367e-36 5.519028e-39
-5.695191e-36 3.215233e-37 -5.708222e-36 5.718633e-36 -5.7522795e-36 -5.75681e-36 3.6581284e-37 -4.4444098e-38
-5.7105855e-36 5.547488e-39 5.7909753e-36 3.885206e-37 -5.6703e-36 2.5507856e-38 -5.6605803e-36 1.39681e-38
-5.7443164e-36 -5.7099035e-36 5.7805297e-36 5.7695127e-36 -7.401118e-39 4.202812e-37 5.7131867e-36 9.128096e-39
-5.695613e-36 3.3336296e-37 5.7605523e-36 -5.4728467e-37 4.4438197e-37 -1.2916973e-38 -3.6618731e-37 1.1105199e-38
6.5729875e-37 5.935185e-37 -5.6948303e-36 -3.9633093e-37 -5.7541797e-36 -5.7329758e-36 -3.0698156e-37 -3.8685165e-37
-5.764057e-36 -5.7451483e-36 -5.760974e-36 -3.1451373e-37 1.2385173e-38 -5.7711456e-36 5.6921764e-36 -2.9715698e-37
5.6631137e-36 -5.6887082e-36 -5.7644237e-36 5.7330586e-36 6.2188034e-38 -9.615476e-39 -4.129837e-37 -1.0925051e-34
-9.184759e-39 5.3414354e-37 5.6704433e-36 2.4263566e-37 -5.7714003e-36 -5.6652266e-36 -5.7823567e-36 -5.6564277e-36
5.7880545e-36 3.1949e-40 -3.5594555e-37 4.752504e-37 1.1430889e-38 -5.6760288e-36 -5.724121e-36 -5.773613e-36
-4.048283e-37 5.756419e-36 -5.719826e-36 2.5195548e-37 -5.7620826e-36 -5.697796e-36 5.9385585e-36 -5.6664277e-36
0.00020706833 2.853781e-37 2.7921455e-37 -5.650573e-36 -0.03419948 0.11130884 -0.038661018 0.0030638652
2.5659658e-37 -5.65647e-36 2.4405485e-37 5.675205e-36 -2.9472802e-37 -2.3356912e-37 -5.7052472e-36 -5.791168e-36
5.7593347e-36 -5.7264153e-36 2.992869e-37 2.5121385e-37 -0.0031227628 -5.787026e-36 -0.00094830705 -2.6285303e-37
2.9749118e-37 -0.11957 -2.8212849e-37 5.489148e-37 9.274987e-39 2.9049536e-37 0.10892646 5.7326723e-36
5.7447383e-36 -2.7355965e-37 -2.1209263e-38 -0.013106163 -5.77393e-36 2.7346873e-37 1.071331e-05 2.7614512e-37
-2.1567263e-38 -5.7850063e-36 -2.4020424e-37 5.8452716e-36 3.4910706e-37 -2.623371e-37 -0.035862163 0.0018787446
2.5619825e-37 -5.70502e-36 -2.9182975e-37 -2.5925842e-37 -2.4096403e-37 0.0098927375 -0.032664657 -2.52499e-37

fc_hidden_layers.2.bias f4 [200]
00000000: 0c37 9689 a255 f1bc 2259 34bd dd03 1f3e
00000010: dfa3 f484 27a0 82bd 297c c9bd 61a0 4cbd
00000020: 6cc6 65b4 5369 7bbc 2be4 f5bd 9405 cdbd
00000030: 59bd 36ba e9ff c282 2065 fd3c f201 223d
00000040: 1276 f084 1625 8cbd 3c0b aa82 14c2 03be
00000050: d092 a8bd 6238 a382 b3b2 0bbc cc4b c182
00000060: f619 d2bc bb8e f284 e72d 21bc 6d92 283d
00000070: 6af5 ad9a eda7 168c ac7e 3a3d 7492 cf3c
00000080: da32 e1a8 e38f 92b3 d670 b9bc 2a69 c3bd
00000090: 005e 543d a791 24ba 87f8 abbb 7773 f584
000000a0: 5ad5 04bd ebe1 b882 c37b 8939 d333 94be
000000b0: bb7b b83c 2006 8b3d 1830 0fbd 95e4 4cbd
000000c0: 72b7 a1bd 21bd c182 3897 9ebd e80d 1abc
000000d0: e90d d43d ef59 e63d 91c9 0cbe 50b3 f284
000000e0: 9691 aa82 fbb8 b43c c172 01bb 440a 28bd
000000f0: 72b0 a33d 8a20 46bd 3ba0 f1bd 9615 10bd
00000100: b162 25be ce77 213d 7146 efbd fc91 94bc
00000110: 4d3f c5bd d07e 8abd 7261 30bd 2745 00be
00000120: d6e7 f484 d9cc 70bd 3191 853c 587f fcb9
00000130: b831 70bd 5770 b43d ddd9 073c ef8d 3ebe
00000140: 6b94 f6bc e159 92bb ab68 6dbd fe2f c93d
00000150: 5749 4bbb 9902 2fbc b7d0 00be 9e73 91bd
00000160: f5ce 15bd 97e3 24be a2d1 b1bd 682d ca3c
00000170: 23df b3bc 4594 5c3e 61e9 39bd ac88 26bb
00000180: bb09 c7bd b21c c9bd f7bd 2a3d bdc5 e2bd
00000190: e69e 5eba 1d24 ff3d 5409 15be 82d6 793d
000001a0: e8f0 f6bc 2b61 aa3c a1c2 adbc edb3 febc
000001b0: b7fd b282 4689 cf3d c1c2 fabd 8e79 bd3d
000001c0: fde0 f03d df6d 31bd 860d 80bd f843 a682
000001d0: b14e f284 7815 2fbd b006 f284 0897 66bd
000001e0: e36a f384 7be1 be3d 11c8 283e 7d27 a6bd
000001f0: 8b82 efbd e770 883d 504b a43c a28f ecbd
00000200: 7b20 f084 5d19 34bc 7a17 31be 3c5d b6bc
00000210: 93c4 013e 0a03 f984 4630 473e f015 d3bd
00000220: 0885 bfbd d3c6 58a4 6982 91bd d287 4b3b
00000230: a99b f284 540a 41bd 141f f384 ceba 31bd
00000240: e08c 05bd 6937 1b3e 7acc aabc 3095 d4bc
00000250: 8ed2 f184 22cc fa3c 4141 96bd a8a3 023e
00000260: 2833 f184 15fb 81bb 6809 67bd daed 36bc
00000270: 80bf f384 262f f284 7d27 c5bc e029 8a3d
00000280: 1ada a59b bf70 b2bc 15a3 02be 9def ab3c
00000290: 9422 b782 4f44 e7bd 0c6d bc82 534d f6bd
000002a0: ccda 44bc 9085 aebc ce46 3fbd 8e87 588a
000002b0: 0453 c5bd 2867 f384 b53b 623e 1d24 ae3d
000002c0: 337d f384 9ecf 9e82 61d2 7abc 40df 4a3e
000002d0: 9a3c 80ba f4a1 a79a 2a48 19ba 0ec7 48bd
000002e0: 85b1 593d fad9 0b3d 1b52 d7bc 9b29 153c
000002f0: 19ef f23c ea27 9dbc 8ee5 aabd 455e 8dbe
00000300: ac4a 55bc 1702 22bd 3f29 e03d 701d f584
00000310: 53e9 bd3c 17ea 1cbe 376c d73d c888 b082
-3.6162952e-33 -0.029459778 -0.044030316 0.15528817 -5.7514616e-36 -0.06378203 -0.09838135 -0.049957637
-2.1399472e-07 -0.0153449355 -0.1200641 -0.100108296 -0.0006970964 -2.8652623e-37 0.03093201 0.039552636
-5.653216e-36 -0.06843011 -2.4985703e-37 -0.12867004 -0.08231127 -2.398306e-37 -0.008526492 -2.8402306e-37
-0.025647145 -5.7025004e-36 -0.009837604 0.041155268 -7.194761e-23 -1.1606113e-31 0.04553096 0.025338389
-2.5002071e-14 -6.8248276e-08 -0.022636812 -0.09541543 0.051847458 -0.00062778074 -0.0052481326 -5.770526e-36
-0.03243003 -2.716604e-37 0.00026222886 -0.2894579 0.022519937 0.067882776 -0.034957975 -0.05002268
-0.078963175 -2.8467356e-37 -0.077436864 -0.00940273 0.10354216 0.11247622 -0.13748766 -5.70586e-36
-2.5062817e-37 0.022060862 -0.0019752237 -0.041025415 0.07992639 -0.048370875 -0.1179814 -0.035176836
-0.16150929 0.039420895 -0.116833575 -0.018136017 -0.09631214 -0.06762469 -0.04306168 -0.1252638
-5.7577032e-36 -0.058789108 0.016304584 -0.00048160064 -0.058641165 0.088104896 0.008291689 -0.18608831
-0.030100068 -0.004466281 -0.057961147 0.09823607 -0.0031019056 -0.010681772 -0.12579618 -0.0710213
-0.036574323 -0.16102444 -0.086825624 0.024679855 -0.021956986 0.21540935 -0.045388583 -0.0025411053
-0.09718653 -0.09819926 0.04168507 -0.11072872 -0.00084923056 0.1245806 -0.1455434 0.060995586
-0.03014417 0.020798286 -0.02121097 -0.031091655 -2.6300374e-37 0.10133605 -0.122441776 0.092517
0.11761663 -0.043317672 -0.062525794 -2.443052e-37 -5.6966193e-36 -0.042745084 -5.6900068e-36 -0.05629638
-5.7227185e-36 0.09320351 0.1648257 -0.081130005 -0.11694821 0.066621594 0.020055443 -0.11550833
-5.6453557e-36 -0.010992375 -0.17294112 -0.022261254 0.12672643 -5.854241e-36 0.19452009 -0.103069186
-0.093515456 -4.7005945e-17 -0.07104952 0.0031056297 -5.7036878e-36 -0.04712899 -5.7157566e-36 -0.04339104
-0.032605052 0.15157856 -0.020849455 -0.025950044 -5.685219e-36 0.030614916 -0.07336665 0.12757742
-5.6705807e-36 -0.003966699 -0.056405455 -0.011165107 -5.730489e-36 -5.6937226e-36 -0.024066681 0.06746268
-2.7437905e-22 -0.021782277 -0.12757523 0.02098828 -2.690928e-37 -0.11292326 -2.7686707e-37 -0.12026467
-0.012015056 -0.021303922 -0.046698384 -1.0425517e-32 -0.096349746 -5.722376e-36 0.22093089 0.08502982
-5.7244003e-36 -2.333518e-37 -0.015308947 0.19811726 -0.0009783686 -6.933123e-23 -0.000584724 -0.04901796
0.05314781 0.034143426 -0.026284268 0.009104158 0.029655026 -0.019184072 -0.08344565 -0.27610984
-0.013018291 -0.039552774 0.10945367 -5.7626257e-36 0.023182547 -0.15323673 0.10518687 -2.5939384e-37

fc_hidden_layers.3.weight f4 [200, 200]
00000000: fce1 3f00 5940 ff81 9622 f284 a93a f284
00000010: e86d 7d81 5f49 2802 388a 6283 4574 f584
00000020: e151 bd82 dd26 5283 ce25 ba02 f27b b002
00000030: 5e58 f484 665c 6680 4df8 fb84 37e2 f284
00000040: 582d 0803 5a6c 6083 d227 6b80 4261 f284
00000050: 4aff f484 8686 ea82 c677 f284 2b57 bd80
00000060: 98af 2d03 82ba 3683 79b6 6402 8ceb f384
00000070: 04ed e700 3c5c f702 d6fb 1c03 64f2 f384
00000080: ffd7 2b00 d0e1 0503 18bf f484 300f 9500
00000090: 987c 6303 ae69 f204 8ccc 1483 29b8 7600
000000a0: fd7a f084 1379 7a00 9cb6 b202 920f f184
000000b0: 158a f584 f518 0183 4ae9 f584 85b7 f284
000000c0: 9ad9 cc02 ce06 bb00 7c53 5203 f14b 2482
000000d0: 8317 ee02 7c9f 4202 6c61 d282 f3bc 3300
000000e0: 18b3 6780 5740 f484 948f 0103 86de f584
000000f0: 23b3 1282 c2a3 f204 d82b 2083 ee58 3883
00000100: 4b28 9d02 2c7b 8582 62e4 3083 6bd4 5703
00000110: 7d9d f504 fb92 f404 f009 f684 c709 f404
00000120: 8eba 2383 841e cc81 e265 f284 b4cc 2f03
00000130: 7b3f b282 3272 4703 e677 ee82 af13 f184
00000140: ee69 fa04 09e6 e500 1c40 1483 fd98 f104
00000150: 8d2d d482 c821 1e83 1357 f604 4a20 f384
00000160: d5e0 bb02 daf4 b101 e550 2f83 d1c2 f484
00000170: 8e74 f000 b1aa f684 da97 2203 e8c6 cb02
00000180: 60e6 3203 633a f284 5e67 4f83 16b8 f084
00000190: 3fbb d982 d953 f384 4095 f384 76a0 f584
000001a0: 41e5 6102 e101 4382 82ed f304 b07e 5f03
000001b0: a0db 5300 b8e8 f284 e3a0 d682 9793 0605
000001c0: a75d 4383 2903 c682 7b67 0785 f205 1783
000001d0: cc06 c780 7cb9 f184 5784 ca82 0b20 fb82
000001e0: 6a20 b580 ebc9 ca02 cb86 4183 7ba5 a082
000001f0: aacd f302 419b f184 389e 0703 ffb2 f384
00000200: b8b8 ce02 f52e b402 3376 f684 9f62 0285
00000210: f091 1c03 5cb0 5e83 ef97 2b82 48b2 f184
00000220: 4f69 e882 5374 c282 0aa7 0083 ff64 1a03
00000230: 9990 e902 8a9a f484 5f84 3a03 a5d7 c202
00000240: 1788 f484 8c5c fa84 5a1d f384 21f0 1203
00000250: 742f 4280 7b08 0585 040a b582 5a83 f284
00000260: c91f 0803 ba3c cf01 51d5 f584 c412 fa82
00000270: 74b5 bc82 6946 c882 a042 2e83 943e f584
00000280: 58a4 7b00 4a67 f384 b8c8 c182 bf2d 0905
00000290: 9f1b 3e03 0bf0 f284 629b 1681 df99 f184
000002a0: c43a dc82 d9f4 5183 0469 f484 cb54 ba02
000002b0: 2206 f882 46aa 1703 0a9e f184 510f f404
000002c0: 85a6 da82 8c33 b081 c4ef f484 a215 fe02
000002d0: 913c f684 04c3 0e01 4c54 d202 d47b bd02
000002e0: aa2d 5883 db77 ef01 ba1f 1983 62f8 bf02
000002f0: 192e f584 4076 da00 be46 1703 30b1 f584
00000300: c80a b482 f37b 0183 b077 f482 6c1d 1483
00000310: 764f a302 e089 f184 e65b f204 203c 9e81
00000320: 6e9f f504 fbe9 b982 045e 30bd 4336 57be
00000330: 1dfa 1a83 8aef 65ba 34c4 9dba 984a 783b
00000340: d660 f12f 91e2 1201 fa30 023d 1ee7 e2b7
00000350: 1245 f284 4c32 a000 5162 f184 68c5 f584
00000360: 7749 c182 c78f c202 c446 5380 825e e1b9
00000370: 7353 74bb dfdc ce02 9122 68ad 8beb 0303
00000380: ece0 f484 4ea0 f084 879c be82 a804 e5bd
00000390: 474e f184 4623 c482 4c8c b302 72cb b082
000003a0: 96f3 2712 926a e319 67d2 fe84 c377 ffb8
000003b0: 54e7 d7bc 867f aa82 2f85 f004 110a c302
000003c0: ef6e 64bd 1d82 ba02 fc12 bb82 be1f 5c3d
000003d0: c51e cabd 79f4 af82 b72c 12be 8a59 3497
000003e0: b236 9982 1dd6 5803 b330 b1bb 51a3 f784
000003f0: 7639 a682 14a8 aa82 5c77 a982 3938 0005
5.866704e-39 -9.376454e-38 -5.692569e-36 -5.6947797e-36 -4.6547615e-38 1.2363747e-37 -6.65741e-37 -5.7706e-36
-2.781805e-37 -6.1758066e-37 2.7351942e-37 2.5932017e-37 -5.7445277e-36 -9.400367e-39 -5.9237845e-36 -5.7101672e-36
4.001886e-37 -6.5952065e-37 -9.840683e-39 -5.6983244e-36 -5.759857e-36 -3.4460422e-37 -5.700392e-36 -1.7388179e-38
5.1041702e-37 -5.3699093e-37 1.6803162e-37 -5.734534e-36 2.1299025e-38 3.6346328e-37 4.6133373e-37 -5.7351626e-36
4.026411e-39 3.9344407e-37 -5.7539616e-36 1.3688937e-38 6.685233e-37 5.6990978e-36 -4.37281e-37 1.0902653e-38
-5.6536676e-36 1.1247364e-38 2.6259562e-37 -5.6673127e-36 -5.772603e-36 -3.793834e-37 -5.7813465e-36 -5.7062463e-36
3.0100003e-37 1.7175679e-38 6.180929e-37 -1.2070611e-37 3.4984452e-37 1.4298639e-37 -3.0912644e-37 4.751393e-39
-9.523303e-39 -5.742321e-36 3.8074512e-37 -5.780358e-36 -1.0777796e-37 5.7044314e-36 -4.7070104e-37 -5.4174826e-37
2.3092204e-37 -1.961329e-37 -5.198392e-37 6.3426665e-37 5.7743853e-36 5.7499105e-36 -5.784345e-36 5.7373103e-36
-4.811555e-37 -7.498155e-38 -5.698749e-36 5.1662866e-37 -2.6191185e-37 5.8611934e-37 -3.5039775e-37 -5.6676904e-36
5.8872e-36 2.111285e-38 -4.3566885e-37 5.6799325e-36 -3.1176745e-37 -4.6470806e-37 5.7914287e-36 -5.715868e-36
2.7606228e-37 6.5370876e-38 -5.152074e-37 -5.7543035e-36 2.2082331e-38 -5.7991077e-36 4.778184e-37 2.9942336e-37
5.2573956e-37 -5.6947546e-36 -6.0950492e-37 -5.6592785e-36 -3.1992758e-37 -5.7206027e-36 -5.726609e-36 -5.7746583e-36
1.6596182e-37 -1.4326877e-37 5.7347142e-36 6.567924e-37 7.701133e-39 -5.7107645e-36 -3.1536818e-37 6.327758e-36
-5.7412857e-37 -2.90953e-37 -6.366676e-36 -4.4381737e-37 -1.8277702e-38 -5.6829168e-36 -2.9757192e-37 -3.6899527e-37
-1.6633853e-38 2.9797128e-37 -5.6872337e-37 -2.3604868e-37 3.5823686e-37 -5.6801406e-36 3.985456e-37 -5.7293407e-36
3.0375003e-37 2.6475575e-37 -5.794287e-36 -6.1306845e-36 4.6011808e-37 -6.5442387e-37 -1.2606699e-37 -5.6822553e-36
-3.414978e-37 -2.8572505e-37 -3.780757e-37 4.537247e-37 3.4319268e-37 -5.7506046e-36 5.481244e-37 2.8629512e-37
-5.7489103e-36 -5.885971e-36 -5.715598e-36 4.31812e-37 -6.078166e-39 -6.2551876e-36 -2.6601308e-37 -5.7014554e-36
4.0003295e-37 7.612693e-38 -5.7795123e-36 -3.674497e-37 -2.7728266e-37 -2.9427772e-37 -5.1210486e-37 -5.7656692e-36
1.1354721e-38 -5.722388e-36 -2.8474008e-37 6.450111e-36 5.586769e-37 -5.711437e-36 -2.766213e-38 -5.6800136e-36
-3.2359824e-37 -6.170065e-37 -5.7460566e-36 2.7378912e-37 -3.6443845e-37 4.4570376e-37 -5.6803964e-36 5.737819e-36
-3.2127799e-37 -6.4726155e-38 -5.7584314e-36 3.7334362e-37 -5.7889944e-36 2.6221198e-38 3.090511e-37 2.7842128e-37
-6.3529115e-37 8.796672e-38 -4.499908e-37 2.8207492e-37 -5.7641557e-36 2.0062558e-38 4.445612e-37 -5.7761944e-36
-2.645481e-37 -3.805198e-37 -3.5921275e-37 -4.3527066e-37 2.3996306e-37 -5.6785446e-36 5.6978322e-36 -5.812631e-38
5.7745636e-36 -2.7317605e-37 -0.04305841 -0.21016793 -4.554365e-37 -0.0008771351 -0.0012036623 0.0037886258
4.390645e-10 2.6978518e-38 0.03178499 -2.7048922e-05 -5.6957358e-36 1.4711723e-38 -5.6749117e-36 -5.7780512e-36
-2.8400968e-37 2.8588262e-37 -7.647732e-39 -0.00042985758 -0.0037281185 3.0395753e-37 -1.31953485e-11 3.876783e-37
-5.7570682e-36 -5.6570945e-36 -2.8007833e-37 -0.11182529 -5.6730714e-36 -2.8819858e-37 2.6382213e-37 -2.5977648e-37
5.299615e-28 2.3514293e-23 -5.9908337e-36 -0.00012181655 -0.026355423 -2.505245e-37 5.654604e-36 2.8658453e-37
-0.055769857 2.7404925e-37 -2.7488077e-37 0.05374121 -0.0986915 -2.585426e-37 -0.1427487 -5.827415e-25
-2.2512723e-37 6.3722485e-37 -0.0054074167 -5.8219403e-36 -2.4424489e-37 -2.5075727e-37 -2.4900827e-37 6.0288575e-36

fc_hidden_layers.3.bias f4 [200]
00000000: f4b7 f084 5495 cdbd 5e97 0283 8d01 428e
00000010: 3d91 5d8a 8a0b b482 b4c5 d53d 74c9 123c
00000020: 4a93 2c3d 5bf0 73bc c454 f784 4354 0bab
00000030: 7666 81bd d77f 4bba 3467 03be d698 f384
00000040: 73ad ed3d ab3a fe3d f7dd 393d 5152 9c3c
00000050: e8db b68c a5c8 f484 8166 d6bd 1ccd de3b
00000060: 12cd e23c ad4c 863d f391 4b8f 6e6f a1bc
00000070: 64f4 edbb 9bf0 f284 4d64 393e 93ed 37bc
00000080: 8eae 7a3d b52d f484 a874 54bd a575 f084
00000090: 9652 5b3d 3f1d f584 c96e 03be ea50 1c3b
000000a0: 4c78 053e 734a 5b8a 22d5 48bc 1756 efbd
000000b0: 2ee2 8ebd da5c f584 393e bfbc afef fa84
000000c0: e55b f484 7133 a396 48bf f684 d8bf e4bd
000000d0: c18b bebd 360e 363d d610 539f 5e76 1dbc
000000e0: e9ec c83d 96cb 04bc 66b9 50bc 648e f484
000000f0: dfcb 2297 4230 f984 0545 8ebd 635b 153d
00000100: 80c2 48bc a83c 74bd 3e0b f584 2926 f284
00000110: aa61 143e 0e6f 0f3d 8e2c f584 6266 fc84
00000120: f8ba fe84 25ec 5bbd 15f7 783b 7821 f984
00000130: 294a 9d90 006f 4a3c 897e 54bc 0c37 943d
00000140: 6b14 1498 3ea0 843b 5017 f484 53f7 fb84
00000150: b0a6 f184 dc94 b595 79d4 873d 755c d4bc
00000160: 68e4 d63d d969 3f85 d411 38bd b061 b482
00000170: 9e53 f584 08e0 85bd 9eca a23c 153a dabd
00000180: 7c90 d582 9604 2a87 bbf5 5e3d f915 923c
00000190: 683d f184 679c fcbc 25d6 aabc 3a04 f384
000001a0: 3619 283c 2d74 193e 30e5 cebc 2e9e 303c
000001b0: 5150 bd3c 883d af82 af18 023c d9a8 f184
000001c0: 33af 913d cdd3 2dbd 5819 5186 f8d7 bf82
000001d0: 6106 2fbb abda d8bd e576 26bc ba8a a83d
000001e0: 4ea8 b282 5375 a3b7 8e9f 263d c7f3 9b82
000001f0: dada c83d af82 1f3e ef16 818b b23c f484
00000200: 3e2c 7e3e c57b b282 d86e d6bc 48be 9e3d
00000210: 373c 0dbd 5cfe f982 b384 2d99 e5d2 4bbe
00000220: 6493 04a3 4329 e5bd 2d1d 493d 3816 7e3c
00000230: b04b f484 a743 40be da45 a782 db40 533d
00000240: d4f2 f484 0d34 75bd a4b9 1a3d c827 0c3e
00000250: 1419 103e 24af 30bc 690c 4b3d 6c96 b382
00000260: 0a7f 25ba 3196 c682 cede f682 74ab 763c
00000270: 867a b082 65cb 59bd 7b80 2b3e 92b7 0985
00000280: 2b25 f6bc 755e 003e fcae 47bc ff3e 42bd
00000290: 6064 b4bc 7257 ccbd 92f7 f084 3a4c a93d
000002a0: ef88 953c e168 d7bc 4e16 1da5 3057 b73d
000002b0: b0d3 603d b4fa 05be a808 7c3b 8207 af82
000002c0: a5c9 ecbc 0f9e 1b8d 5196 f484 e940 ba3d
000002d0: af5e f784 b0a5 48ba 21aa b782 a07f f384
000002e0: 0187 183e 18f2 ba3b f788 45bc c111 a69f
000002f0: 0740 8fbc dde2 533a beaa 7bbd 4aeb e7bc
00000300: e151 ed3c 2d2f 503e cfc2 eabb eac3 bb3c
00000310: f5f2 aa8b 874e f484 40a0 29bc fee7 fe84
-5.6592663e-36 -0.10038248 -3.8377327e-37 -2.3913093e-30 -1.0668079e-32 -2.6455246e-37 0.104380995 0.008959163
0.042132653 -0.014888848 -5.8147266e-36 -4.9499657e-13 -0.06318371 -0.0007762885 -0.12832338 -5.7269383e-36
0.116053484 0.12413534 0.045377698 0.01908222 -2.8173891e-31 -5.7548387e-36 -0.1046877 0.0067993533
0.027685676 0.065575935 -1.00367815e-29 -0.019706454 -0.0072617996 -5.7114888e-36 0.18104668 -0.011226076
0.061201625 -5.74061e-36 -0.051869065 -5.653177e-36 0.053545557 -5.762608e-36 -0.1283523 0.002385194
0.13034171 -1.0558469e-32 -0.012257846 -0.11686342 -0.06976734 -5.7684494e-36 -0.0233451 -5.8994832e-36
-5.7448516e-36 -2.6366534e-25 -5.8009986e-36 -0.11169404 -0.09304 0.044447146 -4.4694914e-20 -0.0096107405
0.09810812 -0.008105179 -0.012739515 -5.749489e-36 -5.2602345e-25 -5.8583936e-36 -0.06946758 0.036464106
-0.012253404 -0.05962816 -5.7609548e-36 -5.692897e-36 0.14490381 0.03501802 -5.764014e-36 -5.933894e-36
-5.9886817e-36 -0.053692 0.003798907 -5.8570355e-36 -6.203984e-29 0.012355566 -0.012969621 0.07237062
-1.913886e-24 0.0040474227 -5.7385533e-36 -5.9236948e-36 -5.6811906e-36 -7.3340176e-26 0.06632323 -0.025922993
0.10492784 -9.000218e-36 -0.044938877 -2.6504693e-37 -5.7676013e-36 -0.06536871 0.019872006 -0.106556095
-3.1380467e-37 -1.2790726e-34 0.054433566 0.017832743 -5.671522e-36 -0.030836297 -0.020854065 -5.7132907e-36
0.010259917 0.14985724 -0.02525577 0.0107799005 0.023109587 -2.5749256e-37 0.007940455 -5.681389e-36
0.07113495 -0.042438317 -3.932715e-35 -2.8188888e-37 -0.0026706683 -0.105885826 -0.010160183 0.08229585
-2.6251351e-37 -1.9485748e-05 0.040679507 -2.2915124e-37 0.098073676 0.15577196 -4.97235e-32 -5.7419864e-36
0.24821565 -2.622579e-37 -0.026175901 0.07751137 -0.034481253 -3.6733257e-37 -8.970689e-24 -0.19904669
-7.1869455e-18 -0.11189511 0.04910009 0.015508227 -5.7433632e-36 -0.18775807 -2.4578537e-37 0.051575523
-5.7587127e-36 -0.059864093 0.037774697 0.1368705 0.14072067 -0.010783944 0.049572382 -2.6388024e-37
-0.0006313181 -2.917969e-37 -3.6274335e-37 0.015055526 -2.59312e-37 -0.053172488 0.1674823 -6.4754256e-36
-0.03004702 0.12536032 -0.012187716 -0.04742336 -0.022020519 -0.09977616 -5.6651086e-36 0.08266492
0.018253772 -0.026295127 -1.3625136e-16 0.089521766 0.05488938 -0.13083917 0.0038457308 -2.5718248e-37
-0.028904745 -4.795332e-31 -5.7502168e-36 0.09094412 -5.8156374e-36 -0.0007654084 -2.6987082e-37 -5.724623e-36
0.1489525 0.0057051294 -0.012056581 -7.0333106e-20 -0.017486585 0.00080828165 -0.06144213 -0.028310437
0.028969707 0.20330496 -0.0071643363 0.022920568 -6.584718e-32 -5.743624e-36 -0.010353148 -5.9928164e-36
